graph torch_jit (
  %input[FLOAT, 1x3x256x128]
) initializers (
  %conv2.0.conv2a.conv1.weight[FLOAT, 16x16x1x1]
  %conv2.0.conv2b.0.conv1.weight[FLOAT, 16x16x1x1]
  %conv2.0.conv2b.1.conv1.weight[FLOAT, 16x16x1x1]
  %conv2.0.conv2c.0.conv1.weight[FLOAT, 16x16x1x1]
  %conv2.0.conv2c.1.conv1.weight[FLOAT, 16x16x1x1]
  %conv2.0.conv2c.2.conv1.weight[FLOAT, 16x16x1x1]
  %conv2.0.conv2d.0.conv1.weight[FLOAT, 16x16x1x1]
  %conv2.0.conv2d.1.conv1.weight[FLOAT, 16x16x1x1]
  %conv2.0.conv2d.2.conv1.weight[FLOAT, 16x16x1x1]
  %conv2.0.conv2d.3.conv1.weight[FLOAT, 16x16x1x1]
  %conv2.0.gate.fc1.weight[FLOAT, 1x16x1x1]
  %conv2.0.gate.fc1.bias[FLOAT, 1]
  %conv2.0.gate.fc2.weight[FLOAT, 16x1x1x1]
  %conv2.0.gate.fc2.bias[FLOAT, 16]
  %conv2.1.conv2a.conv1.weight[FLOAT, 16x16x1x1]
  %conv2.1.conv2b.0.conv1.weight[FLOAT, 16x16x1x1]
  %conv2.1.conv2b.1.conv1.weight[FLOAT, 16x16x1x1]
  %conv2.1.conv2c.0.conv1.weight[FLOAT, 16x16x1x1]
  %conv2.1.conv2c.1.conv1.weight[FLOAT, 16x16x1x1]
  %conv2.1.conv2c.2.conv1.weight[FLOAT, 16x16x1x1]
  %conv2.1.conv2d.0.conv1.weight[FLOAT, 16x16x1x1]
  %conv2.1.conv2d.1.conv1.weight[FLOAT, 16x16x1x1]
  %conv2.1.conv2d.2.conv1.weight[FLOAT, 16x16x1x1]
  %conv2.1.conv2d.3.conv1.weight[FLOAT, 16x16x1x1]
  %conv2.1.gate.fc1.weight[FLOAT, 1x16x1x1]
  %conv2.1.gate.fc1.bias[FLOAT, 1]
  %conv2.1.gate.fc2.weight[FLOAT, 16x1x1x1]
  %conv2.1.gate.fc2.bias[FLOAT, 16]
  %conv3.0.conv2a.conv1.weight[FLOAT, 24x24x1x1]
  %conv3.0.conv2b.0.conv1.weight[FLOAT, 24x24x1x1]
  %conv3.0.conv2b.1.conv1.weight[FLOAT, 24x24x1x1]
  %conv3.0.conv2c.0.conv1.weight[FLOAT, 24x24x1x1]
  %conv3.0.conv2c.1.conv1.weight[FLOAT, 24x24x1x1]
  %conv3.0.conv2c.2.conv1.weight[FLOAT, 24x24x1x1]
  %conv3.0.conv2d.0.conv1.weight[FLOAT, 24x24x1x1]
  %conv3.0.conv2d.1.conv1.weight[FLOAT, 24x24x1x1]
  %conv3.0.conv2d.2.conv1.weight[FLOAT, 24x24x1x1]
  %conv3.0.conv2d.3.conv1.weight[FLOAT, 24x24x1x1]
  %conv3.0.gate.fc1.weight[FLOAT, 1x24x1x1]
  %conv3.0.gate.fc1.bias[FLOAT, 1]
  %conv3.0.gate.fc2.weight[FLOAT, 24x1x1x1]
  %conv3.0.gate.fc2.bias[FLOAT, 24]
  %conv3.1.conv2a.conv1.weight[FLOAT, 24x24x1x1]
  %conv3.1.conv2b.0.conv1.weight[FLOAT, 24x24x1x1]
  %conv3.1.conv2b.1.conv1.weight[FLOAT, 24x24x1x1]
  %conv3.1.conv2c.0.conv1.weight[FLOAT, 24x24x1x1]
  %conv3.1.conv2c.1.conv1.weight[FLOAT, 24x24x1x1]
  %conv3.1.conv2c.2.conv1.weight[FLOAT, 24x24x1x1]
  %conv3.1.conv2d.0.conv1.weight[FLOAT, 24x24x1x1]
  %conv3.1.conv2d.1.conv1.weight[FLOAT, 24x24x1x1]
  %conv3.1.conv2d.2.conv1.weight[FLOAT, 24x24x1x1]
  %conv3.1.conv2d.3.conv1.weight[FLOAT, 24x24x1x1]
  %conv3.1.gate.fc1.weight[FLOAT, 1x24x1x1]
  %conv3.1.gate.fc1.bias[FLOAT, 1]
  %conv3.1.gate.fc2.weight[FLOAT, 24x1x1x1]
  %conv3.1.gate.fc2.bias[FLOAT, 24]
  %conv4.0.conv2a.conv1.weight[FLOAT, 32x32x1x1]
  %conv4.0.conv2b.0.conv1.weight[FLOAT, 32x32x1x1]
  %conv4.0.conv2b.1.conv1.weight[FLOAT, 32x32x1x1]
  %conv4.0.conv2c.0.conv1.weight[FLOAT, 32x32x1x1]
  %conv4.0.conv2c.1.conv1.weight[FLOAT, 32x32x1x1]
  %conv4.0.conv2c.2.conv1.weight[FLOAT, 32x32x1x1]
  %conv4.0.conv2d.0.conv1.weight[FLOAT, 32x32x1x1]
  %conv4.0.conv2d.1.conv1.weight[FLOAT, 32x32x1x1]
  %conv4.0.conv2d.2.conv1.weight[FLOAT, 32x32x1x1]
  %conv4.0.conv2d.3.conv1.weight[FLOAT, 32x32x1x1]
  %conv4.0.gate.fc1.weight[FLOAT, 2x32x1x1]
  %conv4.0.gate.fc1.bias[FLOAT, 2]
  %conv4.0.gate.fc2.weight[FLOAT, 32x2x1x1]
  %conv4.0.gate.fc2.bias[FLOAT, 32]
  %conv4.1.conv2a.conv1.weight[FLOAT, 32x32x1x1]
  %conv4.1.conv2b.0.conv1.weight[FLOAT, 32x32x1x1]
  %conv4.1.conv2b.1.conv1.weight[FLOAT, 32x32x1x1]
  %conv4.1.conv2c.0.conv1.weight[FLOAT, 32x32x1x1]
  %conv4.1.conv2c.1.conv1.weight[FLOAT, 32x32x1x1]
  %conv4.1.conv2c.2.conv1.weight[FLOAT, 32x32x1x1]
  %conv4.1.conv2d.0.conv1.weight[FLOAT, 32x32x1x1]
  %conv4.1.conv2d.1.conv1.weight[FLOAT, 32x32x1x1]
  %conv4.1.conv2d.2.conv1.weight[FLOAT, 32x32x1x1]
  %conv4.1.conv2d.3.conv1.weight[FLOAT, 32x32x1x1]
  %conv4.1.gate.fc1.weight[FLOAT, 2x32x1x1]
  %conv4.1.gate.fc1.bias[FLOAT, 2]
  %conv4.1.gate.fc2.weight[FLOAT, 32x2x1x1]
  %conv4.1.gate.fc2.bias[FLOAT, 32]
  %fc.0.weight[FLOAT, 512x128]
  %fc.0.bias[FLOAT, 512]
  %fc.1.weight[FLOAT, 512]
  %fc.1.bias[FLOAT, 512]
  %fc.1.running_mean[FLOAT, 512]
  %fc.1.running_var[FLOAT, 512]
  %onnx::Conv_1051[FLOAT, 16x3x7x7]
  %onnx::Conv_1052[FLOAT, 16]
  %onnx::Conv_1054[FLOAT, 16x16x1x1]
  %onnx::Conv_1055[FLOAT, 16]
  %onnx::Conv_1057[FLOAT, 16x1x3x3]
  %onnx::Conv_1058[FLOAT, 16]
  %onnx::Conv_1060[FLOAT, 16x1x3x3]
  %onnx::Conv_1061[FLOAT, 16]
  %onnx::Conv_1063[FLOAT, 16x1x3x3]
  %onnx::Conv_1064[FLOAT, 16]
  %onnx::Conv_1066[FLOAT, 16x1x3x3]
  %onnx::Conv_1067[FLOAT, 16]
  %onnx::Conv_1069[FLOAT, 16x1x3x3]
  %onnx::Conv_1070[FLOAT, 16]
  %onnx::Conv_1072[FLOAT, 16x1x3x3]
  %onnx::Conv_1073[FLOAT, 16]
  %onnx::Conv_1075[FLOAT, 16x1x3x3]
  %onnx::Conv_1076[FLOAT, 16]
  %onnx::Conv_1078[FLOAT, 16x1x3x3]
  %onnx::Conv_1079[FLOAT, 16]
  %onnx::Conv_1081[FLOAT, 16x1x3x3]
  %onnx::Conv_1082[FLOAT, 16]
  %onnx::Conv_1084[FLOAT, 16x1x3x3]
  %onnx::Conv_1085[FLOAT, 16]
  %onnx::Conv_1087[FLOAT, 64x16x1x1]
  %onnx::Conv_1088[FLOAT, 64]
  %onnx::Conv_1090[FLOAT, 64x16x1x1]
  %onnx::Conv_1091[FLOAT, 64]
  %onnx::Conv_1093[FLOAT, 16x64x1x1]
  %onnx::Conv_1094[FLOAT, 16]
  %onnx::Conv_1096[FLOAT, 16x1x3x3]
  %onnx::Conv_1097[FLOAT, 16]
  %onnx::Conv_1099[FLOAT, 16x1x3x3]
  %onnx::Conv_1100[FLOAT, 16]
  %onnx::Conv_1102[FLOAT, 16x1x3x3]
  %onnx::Conv_1103[FLOAT, 16]
  %onnx::Conv_1105[FLOAT, 16x1x3x3]
  %onnx::Conv_1106[FLOAT, 16]
  %onnx::Conv_1108[FLOAT, 16x1x3x3]
  %onnx::Conv_1109[FLOAT, 16]
  %onnx::Conv_1111[FLOAT, 16x1x3x3]
  %onnx::Conv_1112[FLOAT, 16]
  %onnx::Conv_1114[FLOAT, 16x1x3x3]
  %onnx::Conv_1115[FLOAT, 16]
  %onnx::Conv_1117[FLOAT, 16x1x3x3]
  %onnx::Conv_1118[FLOAT, 16]
  %onnx::Conv_1120[FLOAT, 16x1x3x3]
  %onnx::Conv_1121[FLOAT, 16]
  %onnx::Conv_1123[FLOAT, 16x1x3x3]
  %onnx::Conv_1124[FLOAT, 16]
  %onnx::Conv_1126[FLOAT, 64x16x1x1]
  %onnx::Conv_1127[FLOAT, 64]
  %onnx::Conv_1129[FLOAT, 64x64x1x1]
  %onnx::Conv_1130[FLOAT, 64]
  %onnx::Conv_1132[FLOAT, 24x64x1x1]
  %onnx::Conv_1133[FLOAT, 24]
  %onnx::Conv_1135[FLOAT, 24x1x3x3]
  %onnx::Conv_1136[FLOAT, 24]
  %onnx::Conv_1138[FLOAT, 24x1x3x3]
  %onnx::Conv_1139[FLOAT, 24]
  %onnx::Conv_1141[FLOAT, 24x1x3x3]
  %onnx::Conv_1142[FLOAT, 24]
  %onnx::Conv_1144[FLOAT, 24x1x3x3]
  %onnx::Conv_1145[FLOAT, 24]
  %onnx::Conv_1147[FLOAT, 24x1x3x3]
  %onnx::Conv_1148[FLOAT, 24]
  %onnx::Conv_1150[FLOAT, 24x1x3x3]
  %onnx::Conv_1151[FLOAT, 24]
  %onnx::Conv_1153[FLOAT, 24x1x3x3]
  %onnx::Conv_1154[FLOAT, 24]
  %onnx::Conv_1156[FLOAT, 24x1x3x3]
  %onnx::Conv_1157[FLOAT, 24]
  %onnx::Conv_1159[FLOAT, 24x1x3x3]
  %onnx::Conv_1160[FLOAT, 24]
  %onnx::Conv_1162[FLOAT, 24x1x3x3]
  %onnx::Conv_1163[FLOAT, 24]
  %onnx::Conv_1165[FLOAT, 96x24x1x1]
  %onnx::Conv_1166[FLOAT, 96]
  %onnx::Conv_1168[FLOAT, 96x64x1x1]
  %onnx::Conv_1169[FLOAT, 96]
  %onnx::Conv_1171[FLOAT, 24x96x1x1]
  %onnx::Conv_1172[FLOAT, 24]
  %onnx::Conv_1174[FLOAT, 24x1x3x3]
  %onnx::Conv_1175[FLOAT, 24]
  %onnx::Conv_1177[FLOAT, 24x1x3x3]
  %onnx::Conv_1178[FLOAT, 24]
  %onnx::Conv_1180[FLOAT, 24x1x3x3]
  %onnx::Conv_1181[FLOAT, 24]
  %onnx::Conv_1183[FLOAT, 24x1x3x3]
  %onnx::Conv_1184[FLOAT, 24]
  %onnx::Conv_1186[FLOAT, 24x1x3x3]
  %onnx::Conv_1187[FLOAT, 24]
  %onnx::Conv_1189[FLOAT, 24x1x3x3]
  %onnx::Conv_1190[FLOAT, 24]
  %onnx::Conv_1192[FLOAT, 24x1x3x3]
  %onnx::Conv_1193[FLOAT, 24]
  %onnx::Conv_1195[FLOAT, 24x1x3x3]
  %onnx::Conv_1196[FLOAT, 24]
  %onnx::Conv_1198[FLOAT, 24x1x3x3]
  %onnx::Conv_1199[FLOAT, 24]
  %onnx::Conv_1201[FLOAT, 24x1x3x3]
  %onnx::Conv_1202[FLOAT, 24]
  %onnx::Conv_1204[FLOAT, 96x24x1x1]
  %onnx::Conv_1205[FLOAT, 96]
  %onnx::Conv_1207[FLOAT, 96x96x1x1]
  %onnx::Conv_1208[FLOAT, 96]
  %onnx::Conv_1210[FLOAT, 32x96x1x1]
  %onnx::Conv_1211[FLOAT, 32]
  %onnx::Conv_1213[FLOAT, 32x1x3x3]
  %onnx::Conv_1214[FLOAT, 32]
  %onnx::Conv_1216[FLOAT, 32x1x3x3]
  %onnx::Conv_1217[FLOAT, 32]
  %onnx::Conv_1219[FLOAT, 32x1x3x3]
  %onnx::Conv_1220[FLOAT, 32]
  %onnx::Conv_1222[FLOAT, 32x1x3x3]
  %onnx::Conv_1223[FLOAT, 32]
  %onnx::Conv_1225[FLOAT, 32x1x3x3]
  %onnx::Conv_1226[FLOAT, 32]
  %onnx::Conv_1228[FLOAT, 32x1x3x3]
  %onnx::Conv_1229[FLOAT, 32]
  %onnx::Conv_1231[FLOAT, 32x1x3x3]
  %onnx::Conv_1232[FLOAT, 32]
  %onnx::Conv_1234[FLOAT, 32x1x3x3]
  %onnx::Conv_1235[FLOAT, 32]
  %onnx::Conv_1237[FLOAT, 32x1x3x3]
  %onnx::Conv_1238[FLOAT, 32]
  %onnx::Conv_1240[FLOAT, 32x1x3x3]
  %onnx::Conv_1241[FLOAT, 32]
  %onnx::Conv_1243[FLOAT, 128x32x1x1]
  %onnx::Conv_1244[FLOAT, 128]
  %onnx::Conv_1246[FLOAT, 128x96x1x1]
  %onnx::Conv_1247[FLOAT, 128]
  %onnx::Conv_1249[FLOAT, 32x128x1x1]
  %onnx::Conv_1250[FLOAT, 32]
  %onnx::Conv_1252[FLOAT, 32x1x3x3]
  %onnx::Conv_1253[FLOAT, 32]
  %onnx::Conv_1255[FLOAT, 32x1x3x3]
  %onnx::Conv_1256[FLOAT, 32]
  %onnx::Conv_1258[FLOAT, 32x1x3x3]
  %onnx::Conv_1259[FLOAT, 32]
  %onnx::Conv_1261[FLOAT, 32x1x3x3]
  %onnx::Conv_1262[FLOAT, 32]
  %onnx::Conv_1264[FLOAT, 32x1x3x3]
  %onnx::Conv_1265[FLOAT, 32]
  %onnx::Conv_1267[FLOAT, 32x1x3x3]
  %onnx::Conv_1268[FLOAT, 32]
  %onnx::Conv_1270[FLOAT, 32x1x3x3]
  %onnx::Conv_1271[FLOAT, 32]
  %onnx::Conv_1273[FLOAT, 32x1x3x3]
  %onnx::Conv_1274[FLOAT, 32]
  %onnx::Conv_1276[FLOAT, 32x1x3x3]
  %onnx::Conv_1277[FLOAT, 32]
  %onnx::Conv_1279[FLOAT, 32x1x3x3]
  %onnx::Conv_1280[FLOAT, 32]
  %onnx::Conv_1282[FLOAT, 128x32x1x1]
  %onnx::Conv_1283[FLOAT, 128]
  %onnx::Conv_1285[FLOAT, 128x128x1x1]
  %onnx::Conv_1286[FLOAT, 128]
) {
  %/conv1/conv/Conv_output_0 = Conv[dilations = [1, 1], group = 1, kernel_shape = [7, 7], pads = [3, 3, 3, 3], strides = [2, 2]](%input, %onnx::Conv_1051, %onnx::Conv_1052)
  %/conv1/relu/Relu_output_0 = Relu(%/conv1/conv/Conv_output_0)
  %/maxpool/MaxPool_output_0 = MaxPool[ceil_mode = 0, kernel_shape = [3, 3], pads = [1, 1, 1, 1], strides = [2, 2]](%/conv1/relu/Relu_output_0)
  %/conv2/conv2.0/conv1/conv/Conv_output_0 = Conv[dilations = [1, 1], group = 1, kernel_shape = [1, 1], pads = [0, 0, 0, 0], strides = [1, 1]](%/maxpool/MaxPool_output_0, %onnx::Conv_1054, %onnx::Conv_1055)
  %/conv2/conv2.0/conv1/relu/Relu_output_0 = Relu(%/conv2/conv2.0/conv1/conv/Conv_output_0)
  %/conv2/conv2.0/conv2a/conv1/Conv_output_0 = Conv[dilations = [1, 1], group = 1, kernel_shape = [1, 1], pads = [0, 0, 0, 0], strides = [1, 1]](%/conv2/conv2.0/conv1/relu/Relu_output_0, %conv2.0.conv2a.conv1.weight)
  %/conv2/conv2.0/conv2a/conv2/Conv_output_0 = Conv[dilations = [1, 1], group = 16, kernel_shape = [3, 3], pads = [1, 1, 1, 1], strides = [1, 1]](%/conv2/conv2.0/conv2a/conv1/Conv_output_0, %onnx::Conv_1057, %onnx::Conv_1058)
  %/conv2/conv2.0/conv2a/relu/Relu_output_0 = Relu(%/conv2/conv2.0/conv2a/conv2/Conv_output_0)
  %/conv2/conv2.0/conv2b/conv2b.0/conv1/Conv_output_0 = Conv[dilations = [1, 1], group = 1, kernel_shape = [1, 1], pads = [0, 0, 0, 0], strides = [1, 1]](%/conv2/conv2.0/conv1/relu/Relu_output_0, %conv2.0.conv2b.0.conv1.weight)
  %/conv2/conv2.0/conv2b/conv2b.0/conv2/Conv_output_0 = Conv[dilations = [1, 1], group = 16, kernel_shape = [3, 3], pads = [1, 1, 1, 1], strides = [1, 1]](%/conv2/conv2.0/conv2b/conv2b.0/conv1/Conv_output_0, %onnx::Conv_1060, %onnx::Conv_1061)
  %/conv2/conv2.0/conv2b/conv2b.0/relu/Relu_output_0 = Relu(%/conv2/conv2.0/conv2b/conv2b.0/conv2/Conv_output_0)
  %/conv2/conv2.0/conv2b/conv2b.1/conv1/Conv_output_0 = Conv[dilations = [1, 1], group = 1, kernel_shape = [1, 1], pads = [0, 0, 0, 0], strides = [1, 1]](%/conv2/conv2.0/conv2b/conv2b.0/relu/Relu_output_0, %conv2.0.conv2b.1.conv1.weight)
  %/conv2/conv2.0/conv2b/conv2b.1/conv2/Conv_output_0 = Conv[dilations = [1, 1], group = 16, kernel_shape = [3, 3], pads = [1, 1, 1, 1], strides = [1, 1]](%/conv2/conv2.0/conv2b/conv2b.1/conv1/Conv_output_0, %onnx::Conv_1063, %onnx::Conv_1064)
  %/conv2/conv2.0/conv2b/conv2b.1/relu/Relu_output_0 = Relu(%/conv2/conv2.0/conv2b/conv2b.1/conv2/Conv_output_0)
  %/conv2/conv2.0/conv2c/conv2c.0/conv1/Conv_output_0 = Conv[dilations = [1, 1], group = 1, kernel_shape = [1, 1], pads = [0, 0, 0, 0], strides = [1, 1]](%/conv2/conv2.0/conv1/relu/Relu_output_0, %conv2.0.conv2c.0.conv1.weight)
  %/conv2/conv2.0/conv2c/conv2c.0/conv2/Conv_output_0 = Conv[dilations = [1, 1], group = 16, kernel_shape = [3, 3], pads = [1, 1, 1, 1], strides = [1, 1]](%/conv2/conv2.0/conv2c/conv2c.0/conv1/Conv_output_0, %onnx::Conv_1066, %onnx::Conv_1067)
  %/conv2/conv2.0/conv2c/conv2c.0/relu/Relu_output_0 = Relu(%/conv2/conv2.0/conv2c/conv2c.0/conv2/Conv_output_0)
  %/conv2/conv2.0/conv2c/conv2c.1/conv1/Conv_output_0 = Conv[dilations = [1, 1], group = 1, kernel_shape = [1, 1], pads = [0, 0, 0, 0], strides = [1, 1]](%/conv2/conv2.0/conv2c/conv2c.0/relu/Relu_output_0, %conv2.0.conv2c.1.conv1.weight)
  %/conv2/conv2.0/conv2c/conv2c.1/conv2/Conv_output_0 = Conv[dilations = [1, 1], group = 16, kernel_shape = [3, 3], pads = [1, 1, 1, 1], strides = [1, 1]](%/conv2/conv2.0/conv2c/conv2c.1/conv1/Conv_output_0, %onnx::Conv_1069, %onnx::Conv_1070)
  %/conv2/conv2.0/conv2c/conv2c.1/relu/Relu_output_0 = Relu(%/conv2/conv2.0/conv2c/conv2c.1/conv2/Conv_output_0)
  %/conv2/conv2.0/conv2c/conv2c.2/conv1/Conv_output_0 = Conv[dilations = [1, 1], group = 1, kernel_shape = [1, 1], pads = [0, 0, 0, 0], strides = [1, 1]](%/conv2/conv2.0/conv2c/conv2c.1/relu/Relu_output_0, %conv2.0.conv2c.2.conv1.weight)
  %/conv2/conv2.0/conv2c/conv2c.2/conv2/Conv_output_0 = Conv[dilations = [1, 1], group = 16, kernel_shape = [3, 3], pads = [1, 1, 1, 1], strides = [1, 1]](%/conv2/conv2.0/conv2c/conv2c.2/conv1/Conv_output_0, %onnx::Conv_1072, %onnx::Conv_1073)
  %/conv2/conv2.0/conv2c/conv2c.2/relu/Relu_output_0 = Relu(%/conv2/conv2.0/conv2c/conv2c.2/conv2/Conv_output_0)
  %/conv2/conv2.0/conv2d/conv2d.0/conv1/Conv_output_0 = Conv[dilations = [1, 1], group = 1, kernel_shape = [1, 1], pads = [0, 0, 0, 0], strides = [1, 1]](%/conv2/conv2.0/conv1/relu/Relu_output_0, %conv2.0.conv2d.0.conv1.weight)
  %/conv2/conv2.0/conv2d/conv2d.0/conv2/Conv_output_0 = Conv[dilations = [1, 1], group = 16, kernel_shape = [3, 3], pads = [1, 1, 1, 1], strides = [1, 1]](%/conv2/conv2.0/conv2d/conv2d.0/conv1/Conv_output_0, %onnx::Conv_1075, %onnx::Conv_1076)
  %/conv2/conv2.0/conv2d/conv2d.0/relu/Relu_output_0 = Relu(%/conv2/conv2.0/conv2d/conv2d.0/conv2/Conv_output_0)
  %/conv2/conv2.0/conv2d/conv2d.1/conv1/Conv_output_0 = Conv[dilations = [1, 1], group = 1, kernel_shape = [1, 1], pads = [0, 0, 0, 0], strides = [1, 1]](%/conv2/conv2.0/conv2d/conv2d.0/relu/Relu_output_0, %conv2.0.conv2d.1.conv1.weight)
  %/conv2/conv2.0/conv2d/conv2d.1/conv2/Conv_output_0 = Conv[dilations = [1, 1], group = 16, kernel_shape = [3, 3], pads = [1, 1, 1, 1], strides = [1, 1]](%/conv2/conv2.0/conv2d/conv2d.1/conv1/Conv_output_0, %onnx::Conv_1078, %onnx::Conv_1079)
  %/conv2/conv2.0/conv2d/conv2d.1/relu/Relu_output_0 = Relu(%/conv2/conv2.0/conv2d/conv2d.1/conv2/Conv_output_0)
  %/conv2/conv2.0/conv2d/conv2d.2/conv1/Conv_output_0 = Conv[dilations = [1, 1], group = 1, kernel_shape = [1, 1], pads = [0, 0, 0, 0], strides = [1, 1]](%/conv2/conv2.0/conv2d/conv2d.1/relu/Relu_output_0, %conv2.0.conv2d.2.conv1.weight)
  %/conv2/conv2.0/conv2d/conv2d.2/conv2/Conv_output_0 = Conv[dilations = [1, 1], group = 16, kernel_shape = [3, 3], pads = [1, 1, 1, 1], strides = [1, 1]](%/conv2/conv2.0/conv2d/conv2d.2/conv1/Conv_output_0, %onnx::Conv_1081, %onnx::Conv_1082)
  %/conv2/conv2.0/conv2d/conv2d.2/relu/Relu_output_0 = Relu(%/conv2/conv2.0/conv2d/conv2d.2/conv2/Conv_output_0)
  %/conv2/conv2.0/conv2d/conv2d.3/conv1/Conv_output_0 = Conv[dilations = [1, 1], group = 1, kernel_shape = [1, 1], pads = [0, 0, 0, 0], strides = [1, 1]](%/conv2/conv2.0/conv2d/conv2d.2/relu/Relu_output_0, %conv2.0.conv2d.3.conv1.weight)
  %/conv2/conv2.0/conv2d/conv2d.3/conv2/Conv_output_0 = Conv[dilations = [1, 1], group = 16, kernel_shape = [3, 3], pads = [1, 1, 1, 1], strides = [1, 1]](%/conv2/conv2.0/conv2d/conv2d.3/conv1/Conv_output_0, %onnx::Conv_1084, %onnx::Conv_1085)
  %/conv2/conv2.0/conv2d/conv2d.3/relu/Relu_output_0 = Relu(%/conv2/conv2.0/conv2d/conv2d.3/conv2/Conv_output_0)
  %/conv2/conv2.0/gate/global_avgpool/GlobalAveragePool_output_0 = GlobalAveragePool(%/conv2/conv2.0/conv2a/relu/Relu_output_0)
  %/conv2/conv2.0/gate/fc1/Conv_output_0 = Conv[dilations = [1, 1], group = 1, kernel_shape = [1, 1], pads = [0, 0, 0, 0], strides = [1, 1]](%/conv2/conv2.0/gate/global_avgpool/GlobalAveragePool_output_0, %conv2.0.gate.fc1.weight, %conv2.0.gate.fc1.bias)
  %/conv2/conv2.0/gate/relu/Relu_output_0 = Relu(%/conv2/conv2.0/gate/fc1/Conv_output_0)
  %/conv2/conv2.0/gate/fc2/Conv_output_0 = Conv[dilations = [1, 1], group = 1, kernel_shape = [1, 1], pads = [0, 0, 0, 0], strides = [1, 1]](%/conv2/conv2.0/gate/relu/Relu_output_0, %conv2.0.gate.fc2.weight, %conv2.0.gate.fc2.bias)
  %/conv2/conv2.0/gate/gate_activation/Sigmoid_output_0 = Sigmoid(%/conv2/conv2.0/gate/fc2/Conv_output_0)
  %/conv2/conv2.0/gate/Mul_output_0 = Mul(%/conv2/conv2.0/conv2a/relu/Relu_output_0, %/conv2/conv2.0/gate/gate_activation/Sigmoid_output_0)
  %/conv2/conv2.0/gate/global_avgpool_1/GlobalAveragePool_output_0 = GlobalAveragePool(%/conv2/conv2.0/conv2b/conv2b.1/relu/Relu_output_0)
  %/conv2/conv2.0/gate/fc1_1/Conv_output_0 = Conv[dilations = [1, 1], group = 1, kernel_shape = [1, 1], pads = [0, 0, 0, 0], strides = [1, 1]](%/conv2/conv2.0/gate/global_avgpool_1/GlobalAveragePool_output_0, %conv2.0.gate.fc1.weight, %conv2.0.gate.fc1.bias)
  %/conv2/conv2.0/gate/relu_1/Relu_output_0 = Relu(%/conv2/conv2.0/gate/fc1_1/Conv_output_0)
  %/conv2/conv2.0/gate/fc2_1/Conv_output_0 = Conv[dilations = [1, 1], group = 1, kernel_shape = [1, 1], pads = [0, 0, 0, 0], strides = [1, 1]](%/conv2/conv2.0/gate/relu_1/Relu_output_0, %conv2.0.gate.fc2.weight, %conv2.0.gate.fc2.bias)
  %/conv2/conv2.0/gate/gate_activation_1/Sigmoid_output_0 = Sigmoid(%/conv2/conv2.0/gate/fc2_1/Conv_output_0)
  %/conv2/conv2.0/gate_1/Mul_output_0 = Mul(%/conv2/conv2.0/conv2b/conv2b.1/relu/Relu_output_0, %/conv2/conv2.0/gate/gate_activation_1/Sigmoid_output_0)
  %/conv2/conv2.0/Add_output_0 = Add(%/conv2/conv2.0/gate/Mul_output_0, %/conv2/conv2.0/gate_1/Mul_output_0)
  %/conv2/conv2.0/gate/global_avgpool_2/GlobalAveragePool_output_0 = GlobalAveragePool(%/conv2/conv2.0/conv2c/conv2c.2/relu/Relu_output_0)
  %/conv2/conv2.0/gate/fc1_2/Conv_output_0 = Conv[dilations = [1, 1], group = 1, kernel_shape = [1, 1], pads = [0, 0, 0, 0], strides = [1, 1]](%/conv2/conv2.0/gate/global_avgpool_2/GlobalAveragePool_output_0, %conv2.0.gate.fc1.weight, %conv2.0.gate.fc1.bias)
  %/conv2/conv2.0/gate/relu_2/Relu_output_0 = Relu(%/conv2/conv2.0/gate/fc1_2/Conv_output_0)
  %/conv2/conv2.0/gate/fc2_2/Conv_output_0 = Conv[dilations = [1, 1], group = 1, kernel_shape = [1, 1], pads = [0, 0, 0, 0], strides = [1, 1]](%/conv2/conv2.0/gate/relu_2/Relu_output_0, %conv2.0.gate.fc2.weight, %conv2.0.gate.fc2.bias)
  %/conv2/conv2.0/gate/gate_activation_2/Sigmoid_output_0 = Sigmoid(%/conv2/conv2.0/gate/fc2_2/Conv_output_0)
  %/conv2/conv2.0/gate_2/Mul_output_0 = Mul(%/conv2/conv2.0/conv2c/conv2c.2/relu/Relu_output_0, %/conv2/conv2.0/gate/gate_activation_2/Sigmoid_output_0)
  %/conv2/conv2.0/Add_1_output_0 = Add(%/conv2/conv2.0/Add_output_0, %/conv2/conv2.0/gate_2/Mul_output_0)
  %/conv2/conv2.0/gate/global_avgpool_3/GlobalAveragePool_output_0 = GlobalAveragePool(%/conv2/conv2.0/conv2d/conv2d.3/relu/Relu_output_0)
  %/conv2/conv2.0/gate/fc1_3/Conv_output_0 = Conv[dilations = [1, 1], group = 1, kernel_shape = [1, 1], pads = [0, 0, 0, 0], strides = [1, 1]](%/conv2/conv2.0/gate/global_avgpool_3/GlobalAveragePool_output_0, %conv2.0.gate.fc1.weight, %conv2.0.gate.fc1.bias)
  %/conv2/conv2.0/gate/relu_3/Relu_output_0 = Relu(%/conv2/conv2.0/gate/fc1_3/Conv_output_0)
  %/conv2/conv2.0/gate/fc2_3/Conv_output_0 = Conv[dilations = [1, 1], group = 1, kernel_shape = [1, 1], pads = [0, 0, 0, 0], strides = [1, 1]](%/conv2/conv2.0/gate/relu_3/Relu_output_0, %conv2.0.gate.fc2.weight, %conv2.0.gate.fc2.bias)
  %/conv2/conv2.0/gate/gate_activation_3/Sigmoid_output_0 = Sigmoid(%/conv2/conv2.0/gate/fc2_3/Conv_output_0)
  %/conv2/conv2.0/gate_3/Mul_output_0 = Mul(%/conv2/conv2.0/conv2d/conv2d.3/relu/Relu_output_0, %/conv2/conv2.0/gate/gate_activation_3/Sigmoid_output_0)
  %/conv2/conv2.0/Add_2_output_0 = Add(%/conv2/conv2.0/Add_1_output_0, %/conv2/conv2.0/gate_3/Mul_output_0)
  %/conv2/conv2.0/conv3/conv/Conv_output_0 = Conv[dilations = [1, 1], group = 1, kernel_shape = [1, 1], pads = [0, 0, 0, 0], strides = [1, 1]](%/conv2/conv2.0/Add_2_output_0, %onnx::Conv_1087, %onnx::Conv_1088)
  %/conv2/conv2.0/downsample/conv/Conv_output_0 = Conv[dilations = [1, 1], group = 1, kernel_shape = [1, 1], pads = [0, 0, 0, 0], strides = [1, 1]](%/maxpool/MaxPool_output_0, %onnx::Conv_1090, %onnx::Conv_1091)
  %/conv2/conv2.0/Add_3_output_0 = Add(%/conv2/conv2.0/conv3/conv/Conv_output_0, %/conv2/conv2.0/downsample/conv/Conv_output_0)
  %/conv2/conv2.0/Relu_output_0 = Relu(%/conv2/conv2.0/Add_3_output_0)
  %/conv2/conv2.1/conv1/conv/Conv_output_0 = Conv[dilations = [1, 1], group = 1, kernel_shape = [1, 1], pads = [0, 0, 0, 0], strides = [1, 1]](%/conv2/conv2.0/Relu_output_0, %onnx::Conv_1093, %onnx::Conv_1094)
  %/conv2/conv2.1/conv1/relu/Relu_output_0 = Relu(%/conv2/conv2.1/conv1/conv/Conv_output_0)
  %/conv2/conv2.1/conv2a/conv1/Conv_output_0 = Conv[dilations = [1, 1], group = 1, kernel_shape = [1, 1], pads = [0, 0, 0, 0], strides = [1, 1]](%/conv2/conv2.1/conv1/relu/Relu_output_0, %conv2.1.conv2a.conv1.weight)
  %/conv2/conv2.1/conv2a/conv2/Conv_output_0 = Conv[dilations = [1, 1], group = 16, kernel_shape = [3, 3], pads = [1, 1, 1, 1], strides = [1, 1]](%/conv2/conv2.1/conv2a/conv1/Conv_output_0, %onnx::Conv_1096, %onnx::Conv_1097)
  %/conv2/conv2.1/conv2a/relu/Relu_output_0 = Relu(%/conv2/conv2.1/conv2a/conv2/Conv_output_0)
  %/conv2/conv2.1/conv2b/conv2b.0/conv1/Conv_output_0 = Conv[dilations = [1, 1], group = 1, kernel_shape = [1, 1], pads = [0, 0, 0, 0], strides = [1, 1]](%/conv2/conv2.1/conv1/relu/Relu_output_0, %conv2.1.conv2b.0.conv1.weight)
  %/conv2/conv2.1/conv2b/conv2b.0/conv2/Conv_output_0 = Conv[dilations = [1, 1], group = 16, kernel_shape = [3, 3], pads = [1, 1, 1, 1], strides = [1, 1]](%/conv2/conv2.1/conv2b/conv2b.0/conv1/Conv_output_0, %onnx::Conv_1099, %onnx::Conv_1100)
  %/conv2/conv2.1/conv2b/conv2b.0/relu/Relu_output_0 = Relu(%/conv2/conv2.1/conv2b/conv2b.0/conv2/Conv_output_0)
  %/conv2/conv2.1/conv2b/conv2b.1/conv1/Conv_output_0 = Conv[dilations = [1, 1], group = 1, kernel_shape = [1, 1], pads = [0, 0, 0, 0], strides = [1, 1]](%/conv2/conv2.1/conv2b/conv2b.0/relu/Relu_output_0, %conv2.1.conv2b.1.conv1.weight)
  %/conv2/conv2.1/conv2b/conv2b.1/conv2/Conv_output_0 = Conv[dilations = [1, 1], group = 16, kernel_shape = [3, 3], pads = [1, 1, 1, 1], strides = [1, 1]](%/conv2/conv2.1/conv2b/conv2b.1/conv1/Conv_output_0, %onnx::Conv_1102, %onnx::Conv_1103)
  %/conv2/conv2.1/conv2b/conv2b.1/relu/Relu_output_0 = Relu(%/conv2/conv2.1/conv2b/conv2b.1/conv2/Conv_output_0)
  %/conv2/conv2.1/conv2c/conv2c.0/conv1/Conv_output_0 = Conv[dilations = [1, 1], group = 1, kernel_shape = [1, 1], pads = [0, 0, 0, 0], strides = [1, 1]](%/conv2/conv2.1/conv1/relu/Relu_output_0, %conv2.1.conv2c.0.conv1.weight)
  %/conv2/conv2.1/conv2c/conv2c.0/conv2/Conv_output_0 = Conv[dilations = [1, 1], group = 16, kernel_shape = [3, 3], pads = [1, 1, 1, 1], strides = [1, 1]](%/conv2/conv2.1/conv2c/conv2c.0/conv1/Conv_output_0, %onnx::Conv_1105, %onnx::Conv_1106)
  %/conv2/conv2.1/conv2c/conv2c.0/relu/Relu_output_0 = Relu(%/conv2/conv2.1/conv2c/conv2c.0/conv2/Conv_output_0)
  %/conv2/conv2.1/conv2c/conv2c.1/conv1/Conv_output_0 = Conv[dilations = [1, 1], group = 1, kernel_shape = [1, 1], pads = [0, 0, 0, 0], strides = [1, 1]](%/conv2/conv2.1/conv2c/conv2c.0/relu/Relu_output_0, %conv2.1.conv2c.1.conv1.weight)
  %/conv2/conv2.1/conv2c/conv2c.1/conv2/Conv_output_0 = Conv[dilations = [1, 1], group = 16, kernel_shape = [3, 3], pads = [1, 1, 1, 1], strides = [1, 1]](%/conv2/conv2.1/conv2c/conv2c.1/conv1/Conv_output_0, %onnx::Conv_1108, %onnx::Conv_1109)
  %/conv2/conv2.1/conv2c/conv2c.1/relu/Relu_output_0 = Relu(%/conv2/conv2.1/conv2c/conv2c.1/conv2/Conv_output_0)
  %/conv2/conv2.1/conv2c/conv2c.2/conv1/Conv_output_0 = Conv[dilations = [1, 1], group = 1, kernel_shape = [1, 1], pads = [0, 0, 0, 0], strides = [1, 1]](%/conv2/conv2.1/conv2c/conv2c.1/relu/Relu_output_0, %conv2.1.conv2c.2.conv1.weight)
  %/conv2/conv2.1/conv2c/conv2c.2/conv2/Conv_output_0 = Conv[dilations = [1, 1], group = 16, kernel_shape = [3, 3], pads = [1, 1, 1, 1], strides = [1, 1]](%/conv2/conv2.1/conv2c/conv2c.2/conv1/Conv_output_0, %onnx::Conv_1111, %onnx::Conv_1112)
  %/conv2/conv2.1/conv2c/conv2c.2/relu/Relu_output_0 = Relu(%/conv2/conv2.1/conv2c/conv2c.2/conv2/Conv_output_0)
  %/conv2/conv2.1/conv2d/conv2d.0/conv1/Conv_output_0 = Conv[dilations = [1, 1], group = 1, kernel_shape = [1, 1], pads = [0, 0, 0, 0], strides = [1, 1]](%/conv2/conv2.1/conv1/relu/Relu_output_0, %conv2.1.conv2d.0.conv1.weight)
  %/conv2/conv2.1/conv2d/conv2d.0/conv2/Conv_output_0 = Conv[dilations = [1, 1], group = 16, kernel_shape = [3, 3], pads = [1, 1, 1, 1], strides = [1, 1]](%/conv2/conv2.1/conv2d/conv2d.0/conv1/Conv_output_0, %onnx::Conv_1114, %onnx::Conv_1115)
  %/conv2/conv2.1/conv2d/conv2d.0/relu/Relu_output_0 = Relu(%/conv2/conv2.1/conv2d/conv2d.0/conv2/Conv_output_0)
  %/conv2/conv2.1/conv2d/conv2d.1/conv1/Conv_output_0 = Conv[dilations = [1, 1], group = 1, kernel_shape = [1, 1], pads = [0, 0, 0, 0], strides = [1, 1]](%/conv2/conv2.1/conv2d/conv2d.0/relu/Relu_output_0, %conv2.1.conv2d.1.conv1.weight)
  %/conv2/conv2.1/conv2d/conv2d.1/conv2/Conv_output_0 = Conv[dilations = [1, 1], group = 16, kernel_shape = [3, 3], pads = [1, 1, 1, 1], strides = [1, 1]](%/conv2/conv2.1/conv2d/conv2d.1/conv1/Conv_output_0, %onnx::Conv_1117, %onnx::Conv_1118)
  %/conv2/conv2.1/conv2d/conv2d.1/relu/Relu_output_0 = Relu(%/conv2/conv2.1/conv2d/conv2d.1/conv2/Conv_output_0)
  %/conv2/conv2.1/conv2d/conv2d.2/conv1/Conv_output_0 = Conv[dilations = [1, 1], group = 1, kernel_shape = [1, 1], pads = [0, 0, 0, 0], strides = [1, 1]](%/conv2/conv2.1/conv2d/conv2d.1/relu/Relu_output_0, %conv2.1.conv2d.2.conv1.weight)
  %/conv2/conv2.1/conv2d/conv2d.2/conv2/Conv_output_0 = Conv[dilations = [1, 1], group = 16, kernel_shape = [3, 3], pads = [1, 1, 1, 1], strides = [1, 1]](%/conv2/conv2.1/conv2d/conv2d.2/conv1/Conv_output_0, %onnx::Conv_1120, %onnx::Conv_1121)
  %/conv2/conv2.1/conv2d/conv2d.2/relu/Relu_output_0 = Relu(%/conv2/conv2.1/conv2d/conv2d.2/conv2/Conv_output_0)
  %/conv2/conv2.1/conv2d/conv2d.3/conv1/Conv_output_0 = Conv[dilations = [1, 1], group = 1, kernel_shape = [1, 1], pads = [0, 0, 0, 0], strides = [1, 1]](%/conv2/conv2.1/conv2d/conv2d.2/relu/Relu_output_0, %conv2.1.conv2d.3.conv1.weight)
  %/conv2/conv2.1/conv2d/conv2d.3/conv2/Conv_output_0 = Conv[dilations = [1, 1], group = 16, kernel_shape = [3, 3], pads = [1, 1, 1, 1], strides = [1, 1]](%/conv2/conv2.1/conv2d/conv2d.3/conv1/Conv_output_0, %onnx::Conv_1123, %onnx::Conv_1124)
  %/conv2/conv2.1/conv2d/conv2d.3/relu/Relu_output_0 = Relu(%/conv2/conv2.1/conv2d/conv2d.3/conv2/Conv_output_0)
  %/conv2/conv2.1/gate/global_avgpool/GlobalAveragePool_output_0 = GlobalAveragePool(%/conv2/conv2.1/conv2a/relu/Relu_output_0)
  %/conv2/conv2.1/gate/fc1/Conv_output_0 = Conv[dilations = [1, 1], group = 1, kernel_shape = [1, 1], pads = [0, 0, 0, 0], strides = [1, 1]](%/conv2/conv2.1/gate/global_avgpool/GlobalAveragePool_output_0, %conv2.1.gate.fc1.weight, %conv2.1.gate.fc1.bias)
  %/conv2/conv2.1/gate/relu/Relu_output_0 = Relu(%/conv2/conv2.1/gate/fc1/Conv_output_0)
  %/conv2/conv2.1/gate/fc2/Conv_output_0 = Conv[dilations = [1, 1], group = 1, kernel_shape = [1, 1], pads = [0, 0, 0, 0], strides = [1, 1]](%/conv2/conv2.1/gate/relu/Relu_output_0, %conv2.1.gate.fc2.weight, %conv2.1.gate.fc2.bias)
  %/conv2/conv2.1/gate/gate_activation/Sigmoid_output_0 = Sigmoid(%/conv2/conv2.1/gate/fc2/Conv_output_0)
  %/conv2/conv2.1/gate/Mul_output_0 = Mul(%/conv2/conv2.1/conv2a/relu/Relu_output_0, %/conv2/conv2.1/gate/gate_activation/Sigmoid_output_0)
  %/conv2/conv2.1/gate/global_avgpool_1/GlobalAveragePool_output_0 = GlobalAveragePool(%/conv2/conv2.1/conv2b/conv2b.1/relu/Relu_output_0)
  %/conv2/conv2.1/gate/fc1_1/Conv_output_0 = Conv[dilations = [1, 1], group = 1, kernel_shape = [1, 1], pads = [0, 0, 0, 0], strides = [1, 1]](%/conv2/conv2.1/gate/global_avgpool_1/GlobalAveragePool_output_0, %conv2.1.gate.fc1.weight, %conv2.1.gate.fc1.bias)
  %/conv2/conv2.1/gate/relu_1/Relu_output_0 = Relu(%/conv2/conv2.1/gate/fc1_1/Conv_output_0)
  %/conv2/conv2.1/gate/fc2_1/Conv_output_0 = Conv[dilations = [1, 1], group = 1, kernel_shape = [1, 1], pads = [0, 0, 0, 0], strides = [1, 1]](%/conv2/conv2.1/gate/relu_1/Relu_output_0, %conv2.1.gate.fc2.weight, %conv2.1.gate.fc2.bias)
  %/conv2/conv2.1/gate/gate_activation_1/Sigmoid_output_0 = Sigmoid(%/conv2/conv2.1/gate/fc2_1/Conv_output_0)
  %/conv2/conv2.1/gate_1/Mul_output_0 = Mul(%/conv2/conv2.1/conv2b/conv2b.1/relu/Relu_output_0, %/conv2/conv2.1/gate/gate_activation_1/Sigmoid_output_0)
  %/conv2/conv2.1/Add_output_0 = Add(%/conv2/conv2.1/gate/Mul_output_0, %/conv2/conv2.1/gate_1/Mul_output_0)
  %/conv2/conv2.1/gate/global_avgpool_2/GlobalAveragePool_output_0 = GlobalAveragePool(%/conv2/conv2.1/conv2c/conv2c.2/relu/Relu_output_0)
  %/conv2/conv2.1/gate/fc1_2/Conv_output_0 = Conv[dilations = [1, 1], group = 1, kernel_shape = [1, 1], pads = [0, 0, 0, 0], strides = [1, 1]](%/conv2/conv2.1/gate/global_avgpool_2/GlobalAveragePool_output_0, %conv2.1.gate.fc1.weight, %conv2.1.gate.fc1.bias)
  %/conv2/conv2.1/gate/relu_2/Relu_output_0 = Relu(%/conv2/conv2.1/gate/fc1_2/Conv_output_0)
  %/conv2/conv2.1/gate/fc2_2/Conv_output_0 = Conv[dilations = [1, 1], group = 1, kernel_shape = [1, 1], pads = [0, 0, 0, 0], strides = [1, 1]](%/conv2/conv2.1/gate/relu_2/Relu_output_0, %conv2.1.gate.fc2.weight, %conv2.1.gate.fc2.bias)
  %/conv2/conv2.1/gate/gate_activation_2/Sigmoid_output_0 = Sigmoid(%/conv2/conv2.1/gate/fc2_2/Conv_output_0)
  %/conv2/conv2.1/gate_2/Mul_output_0 = Mul(%/conv2/conv2.1/conv2c/conv2c.2/relu/Relu_output_0, %/conv2/conv2.1/gate/gate_activation_2/Sigmoid_output_0)
  %/conv2/conv2.1/Add_1_output_0 = Add(%/conv2/conv2.1/Add_output_0, %/conv2/conv2.1/gate_2/Mul_output_0)
  %/conv2/conv2.1/gate/global_avgpool_3/GlobalAveragePool_output_0 = GlobalAveragePool(%/conv2/conv2.1/conv2d/conv2d.3/relu/Relu_output_0)
  %/conv2/conv2.1/gate/fc1_3/Conv_output_0 = Conv[dilations = [1, 1], group = 1, kernel_shape = [1, 1], pads = [0, 0, 0, 0], strides = [1, 1]](%/conv2/conv2.1/gate/global_avgpool_3/GlobalAveragePool_output_0, %conv2.1.gate.fc1.weight, %conv2.1.gate.fc1.bias)
  %/conv2/conv2.1/gate/relu_3/Relu_output_0 = Relu(%/conv2/conv2.1/gate/fc1_3/Conv_output_0)
  %/conv2/conv2.1/gate/fc2_3/Conv_output_0 = Conv[dilations = [1, 1], group = 1, kernel_shape = [1, 1], pads = [0, 0, 0, 0], strides = [1, 1]](%/conv2/conv2.1/gate/relu_3/Relu_output_0, %conv2.1.gate.fc2.weight, %conv2.1.gate.fc2.bias)
  %/conv2/conv2.1/gate/gate_activation_3/Sigmoid_output_0 = Sigmoid(%/conv2/conv2.1/gate/fc2_3/Conv_output_0)
  %/conv2/conv2.1/gate_3/Mul_output_0 = Mul(%/conv2/conv2.1/conv2d/conv2d.3/relu/Relu_output_0, %/conv2/conv2.1/gate/gate_activation_3/Sigmoid_output_0)
  %/conv2/conv2.1/Add_2_output_0 = Add(%/conv2/conv2.1/Add_1_output_0, %/conv2/conv2.1/gate_3/Mul_output_0)
  %/conv2/conv2.1/conv3/conv/Conv_output_0 = Conv[dilations = [1, 1], group = 1, kernel_shape = [1, 1], pads = [0, 0, 0, 0], strides = [1, 1]](%/conv2/conv2.1/Add_2_output_0, %onnx::Conv_1126, %onnx::Conv_1127)
  %/conv2/conv2.1/Add_3_output_0 = Add(%/conv2/conv2.1/conv3/conv/Conv_output_0, %/conv2/conv2.0/Relu_output_0)
  %/conv2/conv2.1/Relu_output_0 = Relu(%/conv2/conv2.1/Add_3_output_0)
  %/conv2/conv2.2/conv2.2.0/conv/Conv_output_0 = Conv[dilations = [1, 1], group = 1, kernel_shape = [1, 1], pads = [0, 0, 0, 0], strides = [1, 1]](%/conv2/conv2.1/Relu_output_0, %onnx::Conv_1129, %onnx::Conv_1130)
  %/conv2/conv2.2/conv2.2.0/relu/Relu_output_0 = Relu(%/conv2/conv2.2/conv2.2.0/conv/Conv_output_0)
  %/conv2/conv2.2/conv2.2.1/Constant_output_0 = Constant[value = <Tensor>]()
  %/conv2/conv2.2/conv2.2.1/Pad_output_0 = Pad[mode = 'constant'](%/conv2/conv2.2/conv2.2.0/relu/Relu_output_0, %/conv2/conv2.2/conv2.2.1/Constant_output_0)
  %/conv2/conv2.2/conv2.2.1/AveragePool_output_0 = AveragePool[kernel_shape = [2, 2], pads = [0, 0, 0, 0], strides = [2, 2]](%/conv2/conv2.2/conv2.2.1/Pad_output_0)
  %/conv3/conv3.0/conv1/conv/Conv_output_0 = Conv[dilations = [1, 1], group = 1, kernel_shape = [1, 1], pads = [0, 0, 0, 0], strides = [1, 1]](%/conv2/conv2.2/conv2.2.1/AveragePool_output_0, %onnx::Conv_1132, %onnx::Conv_1133)
  %/conv3/conv3.0/conv1/relu/Relu_output_0 = Relu(%/conv3/conv3.0/conv1/conv/Conv_output_0)
  %/conv3/conv3.0/conv2a/conv1/Conv_output_0 = Conv[dilations = [1, 1], group = 1, kernel_shape = [1, 1], pads = [0, 0, 0, 0], strides = [1, 1]](%/conv3/conv3.0/conv1/relu/Relu_output_0, %conv3.0.conv2a.conv1.weight)
  %/conv3/conv3.0/conv2a/conv2/Conv_output_0 = Conv[dilations = [1, 1], group = 24, kernel_shape = [3, 3], pads = [1, 1, 1, 1], strides = [1, 1]](%/conv3/conv3.0/conv2a/conv1/Conv_output_0, %onnx::Conv_1135, %onnx::Conv_1136)
  %/conv3/conv3.0/conv2a/relu/Relu_output_0 = Relu(%/conv3/conv3.0/conv2a/conv2/Conv_output_0)
  %/conv3/conv3.0/conv2b/conv2b.0/conv1/Conv_output_0 = Conv[dilations = [1, 1], group = 1, kernel_shape = [1, 1], pads = [0, 0, 0, 0], strides = [1, 1]](%/conv3/conv3.0/conv1/relu/Relu_output_0, %conv3.0.conv2b.0.conv1.weight)
  %/conv3/conv3.0/conv2b/conv2b.0/conv2/Conv_output_0 = Conv[dilations = [1, 1], group = 24, kernel_shape = [3, 3], pads = [1, 1, 1, 1], strides = [1, 1]](%/conv3/conv3.0/conv2b/conv2b.0/conv1/Conv_output_0, %onnx::Conv_1138, %onnx::Conv_1139)
  %/conv3/conv3.0/conv2b/conv2b.0/relu/Relu_output_0 = Relu(%/conv3/conv3.0/conv2b/conv2b.0/conv2/Conv_output_0)
  %/conv3/conv3.0/conv2b/conv2b.1/conv1/Conv_output_0 = Conv[dilations = [1, 1], group = 1, kernel_shape = [1, 1], pads = [0, 0, 0, 0], strides = [1, 1]](%/conv3/conv3.0/conv2b/conv2b.0/relu/Relu_output_0, %conv3.0.conv2b.1.conv1.weight)
  %/conv3/conv3.0/conv2b/conv2b.1/conv2/Conv_output_0 = Conv[dilations = [1, 1], group = 24, kernel_shape = [3, 3], pads = [1, 1, 1, 1], strides = [1, 1]](%/conv3/conv3.0/conv2b/conv2b.1/conv1/Conv_output_0, %onnx::Conv_1141, %onnx::Conv_1142)
  %/conv3/conv3.0/conv2b/conv2b.1/relu/Relu_output_0 = Relu(%/conv3/conv3.0/conv2b/conv2b.1/conv2/Conv_output_0)
  %/conv3/conv3.0/conv2c/conv2c.0/conv1/Conv_output_0 = Conv[dilations = [1, 1], group = 1, kernel_shape = [1, 1], pads = [0, 0, 0, 0], strides = [1, 1]](%/conv3/conv3.0/conv1/relu/Relu_output_0, %conv3.0.conv2c.0.conv1.weight)
  %/conv3/conv3.0/conv2c/conv2c.0/conv2/Conv_output_0 = Conv[dilations = [1, 1], group = 24, kernel_shape = [3, 3], pads = [1, 1, 1, 1], strides = [1, 1]](%/conv3/conv3.0/conv2c/conv2c.0/conv1/Conv_output_0, %onnx::Conv_1144, %onnx::Conv_1145)
  %/conv3/conv3.0/conv2c/conv2c.0/relu/Relu_output_0 = Relu(%/conv3/conv3.0/conv2c/conv2c.0/conv2/Conv_output_0)
  %/conv3/conv3.0/conv2c/conv2c.1/conv1/Conv_output_0 = Conv[dilations = [1, 1], group = 1, kernel_shape = [1, 1], pads = [0, 0, 0, 0], strides = [1, 1]](%/conv3/conv3.0/conv2c/conv2c.0/relu/Relu_output_0, %conv3.0.conv2c.1.conv1.weight)
  %/conv3/conv3.0/conv2c/conv2c.1/conv2/Conv_output_0 = Conv[dilations = [1, 1], group = 24, kernel_shape = [3, 3], pads = [1, 1, 1, 1], strides = [1, 1]](%/conv3/conv3.0/conv2c/conv2c.1/conv1/Conv_output_0, %onnx::Conv_1147, %onnx::Conv_1148)
  %/conv3/conv3.0/conv2c/conv2c.1/relu/Relu_output_0 = Relu(%/conv3/conv3.0/conv2c/conv2c.1/conv2/Conv_output_0)
  %/conv3/conv3.0/conv2c/conv2c.2/conv1/Conv_output_0 = Conv[dilations = [1, 1], group = 1, kernel_shape = [1, 1], pads = [0, 0, 0, 0], strides = [1, 1]](%/conv3/conv3.0/conv2c/conv2c.1/relu/Relu_output_0, %conv3.0.conv2c.2.conv1.weight)
  %/conv3/conv3.0/conv2c/conv2c.2/conv2/Conv_output_0 = Conv[dilations = [1, 1], group = 24, kernel_shape = [3, 3], pads = [1, 1, 1, 1], strides = [1, 1]](%/conv3/conv3.0/conv2c/conv2c.2/conv1/Conv_output_0, %onnx::Conv_1150, %onnx::Conv_1151)
  %/conv3/conv3.0/conv2c/conv2c.2/relu/Relu_output_0 = Relu(%/conv3/conv3.0/conv2c/conv2c.2/conv2/Conv_output_0)
  %/conv3/conv3.0/conv2d/conv2d.0/conv1/Conv_output_0 = Conv[dilations = [1, 1], group = 1, kernel_shape = [1, 1], pads = [0, 0, 0, 0], strides = [1, 1]](%/conv3/conv3.0/conv1/relu/Relu_output_0, %conv3.0.conv2d.0.conv1.weight)
  %/conv3/conv3.0/conv2d/conv2d.0/conv2/Conv_output_0 = Conv[dilations = [1, 1], group = 24, kernel_shape = [3, 3], pads = [1, 1, 1, 1], strides = [1, 1]](%/conv3/conv3.0/conv2d/conv2d.0/conv1/Conv_output_0, %onnx::Conv_1153, %onnx::Conv_1154)
  %/conv3/conv3.0/conv2d/conv2d.0/relu/Relu_output_0 = Relu(%/conv3/conv3.0/conv2d/conv2d.0/conv2/Conv_output_0)
  %/conv3/conv3.0/conv2d/conv2d.1/conv1/Conv_output_0 = Conv[dilations = [1, 1], group = 1, kernel_shape = [1, 1], pads = [0, 0, 0, 0], strides = [1, 1]](%/conv3/conv3.0/conv2d/conv2d.0/relu/Relu_output_0, %conv3.0.conv2d.1.conv1.weight)
  %/conv3/conv3.0/conv2d/conv2d.1/conv2/Conv_output_0 = Conv[dilations = [1, 1], group = 24, kernel_shape = [3, 3], pads = [1, 1, 1, 1], strides = [1, 1]](%/conv3/conv3.0/conv2d/conv2d.1/conv1/Conv_output_0, %onnx::Conv_1156, %onnx::Conv_1157)
  %/conv3/conv3.0/conv2d/conv2d.1/relu/Relu_output_0 = Relu(%/conv3/conv3.0/conv2d/conv2d.1/conv2/Conv_output_0)
  %/conv3/conv3.0/conv2d/conv2d.2/conv1/Conv_output_0 = Conv[dilations = [1, 1], group = 1, kernel_shape = [1, 1], pads = [0, 0, 0, 0], strides = [1, 1]](%/conv3/conv3.0/conv2d/conv2d.1/relu/Relu_output_0, %conv3.0.conv2d.2.conv1.weight)
  %/conv3/conv3.0/conv2d/conv2d.2/conv2/Conv_output_0 = Conv[dilations = [1, 1], group = 24, kernel_shape = [3, 3], pads = [1, 1, 1, 1], strides = [1, 1]](%/conv3/conv3.0/conv2d/conv2d.2/conv1/Conv_output_0, %onnx::Conv_1159, %onnx::Conv_1160)
  %/conv3/conv3.0/conv2d/conv2d.2/relu/Relu_output_0 = Relu(%/conv3/conv3.0/conv2d/conv2d.2/conv2/Conv_output_0)
  %/conv3/conv3.0/conv2d/conv2d.3/conv1/Conv_output_0 = Conv[dilations = [1, 1], group = 1, kernel_shape = [1, 1], pads = [0, 0, 0, 0], strides = [1, 1]](%/conv3/conv3.0/conv2d/conv2d.2/relu/Relu_output_0, %conv3.0.conv2d.3.conv1.weight)
  %/conv3/conv3.0/conv2d/conv2d.3/conv2/Conv_output_0 = Conv[dilations = [1, 1], group = 24, kernel_shape = [3, 3], pads = [1, 1, 1, 1], strides = [1, 1]](%/conv3/conv3.0/conv2d/conv2d.3/conv1/Conv_output_0, %onnx::Conv_1162, %onnx::Conv_1163)
  %/conv3/conv3.0/conv2d/conv2d.3/relu/Relu_output_0 = Relu(%/conv3/conv3.0/conv2d/conv2d.3/conv2/Conv_output_0)
  %/conv3/conv3.0/gate/global_avgpool/GlobalAveragePool_output_0 = GlobalAveragePool(%/conv3/conv3.0/conv2a/relu/Relu_output_0)
  %/conv3/conv3.0/gate/fc1/Conv_output_0 = Conv[dilations = [1, 1], group = 1, kernel_shape = [1, 1], pads = [0, 0, 0, 0], strides = [1, 1]](%/conv3/conv3.0/gate/global_avgpool/GlobalAveragePool_output_0, %conv3.0.gate.fc1.weight, %conv3.0.gate.fc1.bias)
  %/conv3/conv3.0/gate/relu/Relu_output_0 = Relu(%/conv3/conv3.0/gate/fc1/Conv_output_0)
  %/conv3/conv3.0/gate/fc2/Conv_output_0 = Conv[dilations = [1, 1], group = 1, kernel_shape = [1, 1], pads = [0, 0, 0, 0], strides = [1, 1]](%/conv3/conv3.0/gate/relu/Relu_output_0, %conv3.0.gate.fc2.weight, %conv3.0.gate.fc2.bias)
  %/conv3/conv3.0/gate/gate_activation/Sigmoid_output_0 = Sigmoid(%/conv3/conv3.0/gate/fc2/Conv_output_0)
  %/conv3/conv3.0/gate/Mul_output_0 = Mul(%/conv3/conv3.0/conv2a/relu/Relu_output_0, %/conv3/conv3.0/gate/gate_activation/Sigmoid_output_0)
  %/conv3/conv3.0/gate/global_avgpool_1/GlobalAveragePool_output_0 = GlobalAveragePool(%/conv3/conv3.0/conv2b/conv2b.1/relu/Relu_output_0)
  %/conv3/conv3.0/gate/fc1_1/Conv_output_0 = Conv[dilations = [1, 1], group = 1, kernel_shape = [1, 1], pads = [0, 0, 0, 0], strides = [1, 1]](%/conv3/conv3.0/gate/global_avgpool_1/GlobalAveragePool_output_0, %conv3.0.gate.fc1.weight, %conv3.0.gate.fc1.bias)
  %/conv3/conv3.0/gate/relu_1/Relu_output_0 = Relu(%/conv3/conv3.0/gate/fc1_1/Conv_output_0)
  %/conv3/conv3.0/gate/fc2_1/Conv_output_0 = Conv[dilations = [1, 1], group = 1, kernel_shape = [1, 1], pads = [0, 0, 0, 0], strides = [1, 1]](%/conv3/conv3.0/gate/relu_1/Relu_output_0, %conv3.0.gate.fc2.weight, %conv3.0.gate.fc2.bias)
  %/conv3/conv3.0/gate/gate_activation_1/Sigmoid_output_0 = Sigmoid(%/conv3/conv3.0/gate/fc2_1/Conv_output_0)
  %/conv3/conv3.0/gate_1/Mul_output_0 = Mul(%/conv3/conv3.0/conv2b/conv2b.1/relu/Relu_output_0, %/conv3/conv3.0/gate/gate_activation_1/Sigmoid_output_0)
  %/conv3/conv3.0/Add_output_0 = Add(%/conv3/conv3.0/gate/Mul_output_0, %/conv3/conv3.0/gate_1/Mul_output_0)
  %/conv3/conv3.0/gate/global_avgpool_2/GlobalAveragePool_output_0 = GlobalAveragePool(%/conv3/conv3.0/conv2c/conv2c.2/relu/Relu_output_0)
  %/conv3/conv3.0/gate/fc1_2/Conv_output_0 = Conv[dilations = [1, 1], group = 1, kernel_shape = [1, 1], pads = [0, 0, 0, 0], strides = [1, 1]](%/conv3/conv3.0/gate/global_avgpool_2/GlobalAveragePool_output_0, %conv3.0.gate.fc1.weight, %conv3.0.gate.fc1.bias)
  %/conv3/conv3.0/gate/relu_2/Relu_output_0 = Relu(%/conv3/conv3.0/gate/fc1_2/Conv_output_0)
  %/conv3/conv3.0/gate/fc2_2/Conv_output_0 = Conv[dilations = [1, 1], group = 1, kernel_shape = [1, 1], pads = [0, 0, 0, 0], strides = [1, 1]](%/conv3/conv3.0/gate/relu_2/Relu_output_0, %conv3.0.gate.fc2.weight, %conv3.0.gate.fc2.bias)
  %/conv3/conv3.0/gate/gate_activation_2/Sigmoid_output_0 = Sigmoid(%/conv3/conv3.0/gate/fc2_2/Conv_output_0)
  %/conv3/conv3.0/gate_2/Mul_output_0 = Mul(%/conv3/conv3.0/conv2c/conv2c.2/relu/Relu_output_0, %/conv3/conv3.0/gate/gate_activation_2/Sigmoid_output_0)
  %/conv3/conv3.0/Add_1_output_0 = Add(%/conv3/conv3.0/Add_output_0, %/conv3/conv3.0/gate_2/Mul_output_0)
  %/conv3/conv3.0/gate/global_avgpool_3/GlobalAveragePool_output_0 = GlobalAveragePool(%/conv3/conv3.0/conv2d/conv2d.3/relu/Relu_output_0)
  %/conv3/conv3.0/gate/fc1_3/Conv_output_0 = Conv[dilations = [1, 1], group = 1, kernel_shape = [1, 1], pads = [0, 0, 0, 0], strides = [1, 1]](%/conv3/conv3.0/gate/global_avgpool_3/GlobalAveragePool_output_0, %conv3.0.gate.fc1.weight, %conv3.0.gate.fc1.bias)
  %/conv3/conv3.0/gate/relu_3/Relu_output_0 = Relu(%/conv3/conv3.0/gate/fc1_3/Conv_output_0)
  %/conv3/conv3.0/gate/fc2_3/Conv_output_0 = Conv[dilations = [1, 1], group = 1, kernel_shape = [1, 1], pads = [0, 0, 0, 0], strides = [1, 1]](%/conv3/conv3.0/gate/relu_3/Relu_output_0, %conv3.0.gate.fc2.weight, %conv3.0.gate.fc2.bias)
  %/conv3/conv3.0/gate/gate_activation_3/Sigmoid_output_0 = Sigmoid(%/conv3/conv3.0/gate/fc2_3/Conv_output_0)
  %/conv3/conv3.0/gate_3/Mul_output_0 = Mul(%/conv3/conv3.0/conv2d/conv2d.3/relu/Relu_output_0, %/conv3/conv3.0/gate/gate_activation_3/Sigmoid_output_0)
  %/conv3/conv3.0/Add_2_output_0 = Add(%/conv3/conv3.0/Add_1_output_0, %/conv3/conv3.0/gate_3/Mul_output_0)
  %/conv3/conv3.0/conv3/conv/Conv_output_0 = Conv[dilations = [1, 1], group = 1, kernel_shape = [1, 1], pads = [0, 0, 0, 0], strides = [1, 1]](%/conv3/conv3.0/Add_2_output_0, %onnx::Conv_1165, %onnx::Conv_1166)
  %/conv3/conv3.0/downsample/conv/Conv_output_0 = Conv[dilations = [1, 1], group = 1, kernel_shape = [1, 1], pads = [0, 0, 0, 0], strides = [1, 1]](%/conv2/conv2.2/conv2.2.1/AveragePool_output_0, %onnx::Conv_1168, %onnx::Conv_1169)
  %/conv3/conv3.0/Add_3_output_0 = Add(%/conv3/conv3.0/conv3/conv/Conv_output_0, %/conv3/conv3.0/downsample/conv/Conv_output_0)
  %/conv3/conv3.0/Relu_output_0 = Relu(%/conv3/conv3.0/Add_3_output_0)
  %/conv3/conv3.1/conv1/conv/Conv_output_0 = Conv[dilations = [1, 1], group = 1, kernel_shape = [1, 1], pads = [0, 0, 0, 0], strides = [1, 1]](%/conv3/conv3.0/Relu_output_0, %onnx::Conv_1171, %onnx::Conv_1172)
  %/conv3/conv3.1/conv1/relu/Relu_output_0 = Relu(%/conv3/conv3.1/conv1/conv/Conv_output_0)
  %/conv3/conv3.1/conv2a/conv1/Conv_output_0 = Conv[dilations = [1, 1], group = 1, kernel_shape = [1, 1], pads = [0, 0, 0, 0], strides = [1, 1]](%/conv3/conv3.1/conv1/relu/Relu_output_0, %conv3.1.conv2a.conv1.weight)
  %/conv3/conv3.1/conv2a/conv2/Conv_output_0 = Conv[dilations = [1, 1], group = 24, kernel_shape = [3, 3], pads = [1, 1, 1, 1], strides = [1, 1]](%/conv3/conv3.1/conv2a/conv1/Conv_output_0, %onnx::Conv_1174, %onnx::Conv_1175)
  %/conv3/conv3.1/conv2a/relu/Relu_output_0 = Relu(%/conv3/conv3.1/conv2a/conv2/Conv_output_0)
  %/conv3/conv3.1/conv2b/conv2b.0/conv1/Conv_output_0 = Conv[dilations = [1, 1], group = 1, kernel_shape = [1, 1], pads = [0, 0, 0, 0], strides = [1, 1]](%/conv3/conv3.1/conv1/relu/Relu_output_0, %conv3.1.conv2b.0.conv1.weight)
  %/conv3/conv3.1/conv2b/conv2b.0/conv2/Conv_output_0 = Conv[dilations = [1, 1], group = 24, kernel_shape = [3, 3], pads = [1, 1, 1, 1], strides = [1, 1]](%/conv3/conv3.1/conv2b/conv2b.0/conv1/Conv_output_0, %onnx::Conv_1177, %onnx::Conv_1178)
  %/conv3/conv3.1/conv2b/conv2b.0/relu/Relu_output_0 = Relu(%/conv3/conv3.1/conv2b/conv2b.0/conv2/Conv_output_0)
  %/conv3/conv3.1/conv2b/conv2b.1/conv1/Conv_output_0 = Conv[dilations = [1, 1], group = 1, kernel_shape = [1, 1], pads = [0, 0, 0, 0], strides = [1, 1]](%/conv3/conv3.1/conv2b/conv2b.0/relu/Relu_output_0, %conv3.1.conv2b.1.conv1.weight)
  %/conv3/conv3.1/conv2b/conv2b.1/conv2/Conv_output_0 = Conv[dilations = [1, 1], group = 24, kernel_shape = [3, 3], pads = [1, 1, 1, 1], strides = [1, 1]](%/conv3/conv3.1/conv2b/conv2b.1/conv1/Conv_output_0, %onnx::Conv_1180, %onnx::Conv_1181)
  %/conv3/conv3.1/conv2b/conv2b.1/relu/Relu_output_0 = Relu(%/conv3/conv3.1/conv2b/conv2b.1/conv2/Conv_output_0)
  %/conv3/conv3.1/conv2c/conv2c.0/conv1/Conv_output_0 = Conv[dilations = [1, 1], group = 1, kernel_shape = [1, 1], pads = [0, 0, 0, 0], strides = [1, 1]](%/conv3/conv3.1/conv1/relu/Relu_output_0, %conv3.1.conv2c.0.conv1.weight)
  %/conv3/conv3.1/conv2c/conv2c.0/conv2/Conv_output_0 = Conv[dilations = [1, 1], group = 24, kernel_shape = [3, 3], pads = [1, 1, 1, 1], strides = [1, 1]](%/conv3/conv3.1/conv2c/conv2c.0/conv1/Conv_output_0, %onnx::Conv_1183, %onnx::Conv_1184)
  %/conv3/conv3.1/conv2c/conv2c.0/relu/Relu_output_0 = Relu(%/conv3/conv3.1/conv2c/conv2c.0/conv2/Conv_output_0)
  %/conv3/conv3.1/conv2c/conv2c.1/conv1/Conv_output_0 = Conv[dilations = [1, 1], group = 1, kernel_shape = [1, 1], pads = [0, 0, 0, 0], strides = [1, 1]](%/conv3/conv3.1/conv2c/conv2c.0/relu/Relu_output_0, %conv3.1.conv2c.1.conv1.weight)
  %/conv3/conv3.1/conv2c/conv2c.1/conv2/Conv_output_0 = Conv[dilations = [1, 1], group = 24, kernel_shape = [3, 3], pads = [1, 1, 1, 1], strides = [1, 1]](%/conv3/conv3.1/conv2c/conv2c.1/conv1/Conv_output_0, %onnx::Conv_1186, %onnx::Conv_1187)
  %/conv3/conv3.1/conv2c/conv2c.1/relu/Relu_output_0 = Relu(%/conv3/conv3.1/conv2c/conv2c.1/conv2/Conv_output_0)
  %/conv3/conv3.1/conv2c/conv2c.2/conv1/Conv_output_0 = Conv[dilations = [1, 1], group = 1, kernel_shape = [1, 1], pads = [0, 0, 0, 0], strides = [1, 1]](%/conv3/conv3.1/conv2c/conv2c.1/relu/Relu_output_0, %conv3.1.conv2c.2.conv1.weight)
  %/conv3/conv3.1/conv2c/conv2c.2/conv2/Conv_output_0 = Conv[dilations = [1, 1], group = 24, kernel_shape = [3, 3], pads = [1, 1, 1, 1], strides = [1, 1]](%/conv3/conv3.1/conv2c/conv2c.2/conv1/Conv_output_0, %onnx::Conv_1189, %onnx::Conv_1190)
  %/conv3/conv3.1/conv2c/conv2c.2/relu/Relu_output_0 = Relu(%/conv3/conv3.1/conv2c/conv2c.2/conv2/Conv_output_0)
  %/conv3/conv3.1/conv2d/conv2d.0/conv1/Conv_output_0 = Conv[dilations = [1, 1], group = 1, kernel_shape = [1, 1], pads = [0, 0, 0, 0], strides = [1, 1]](%/conv3/conv3.1/conv1/relu/Relu_output_0, %conv3.1.conv2d.0.conv1.weight)
  %/conv3/conv3.1/conv2d/conv2d.0/conv2/Conv_output_0 = Conv[dilations = [1, 1], group = 24, kernel_shape = [3, 3], pads = [1, 1, 1, 1], strides = [1, 1]](%/conv3/conv3.1/conv2d/conv2d.0/conv1/Conv_output_0, %onnx::Conv_1192, %onnx::Conv_1193)
  %/conv3/conv3.1/conv2d/conv2d.0/relu/Relu_output_0 = Relu(%/conv3/conv3.1/conv2d/conv2d.0/conv2/Conv_output_0)
  %/conv3/conv3.1/conv2d/conv2d.1/conv1/Conv_output_0 = Conv[dilations = [1, 1], group = 1, kernel_shape = [1, 1], pads = [0, 0, 0, 0], strides = [1, 1]](%/conv3/conv3.1/conv2d/conv2d.0/relu/Relu_output_0, %conv3.1.conv2d.1.conv1.weight)
  %/conv3/conv3.1/conv2d/conv2d.1/conv2/Conv_output_0 = Conv[dilations = [1, 1], group = 24, kernel_shape = [3, 3], pads = [1, 1, 1, 1], strides = [1, 1]](%/conv3/conv3.1/conv2d/conv2d.1/conv1/Conv_output_0, %onnx::Conv_1195, %onnx::Conv_1196)
  %/conv3/conv3.1/conv2d/conv2d.1/relu/Relu_output_0 = Relu(%/conv3/conv3.1/conv2d/conv2d.1/conv2/Conv_output_0)
  %/conv3/conv3.1/conv2d/conv2d.2/conv1/Conv_output_0 = Conv[dilations = [1, 1], group = 1, kernel_shape = [1, 1], pads = [0, 0, 0, 0], strides = [1, 1]](%/conv3/conv3.1/conv2d/conv2d.1/relu/Relu_output_0, %conv3.1.conv2d.2.conv1.weight)
  %/conv3/conv3.1/conv2d/conv2d.2/conv2/Conv_output_0 = Conv[dilations = [1, 1], group = 24, kernel_shape = [3, 3], pads = [1, 1, 1, 1], strides = [1, 1]](%/conv3/conv3.1/conv2d/conv2d.2/conv1/Conv_output_0, %onnx::Conv_1198, %onnx::Conv_1199)
  %/conv3/conv3.1/conv2d/conv2d.2/relu/Relu_output_0 = Relu(%/conv3/conv3.1/conv2d/conv2d.2/conv2/Conv_output_0)
  %/conv3/conv3.1/conv2d/conv2d.3/conv1/Conv_output_0 = Conv[dilations = [1, 1], group = 1, kernel_shape = [1, 1], pads = [0, 0, 0, 0], strides = [1, 1]](%/conv3/conv3.1/conv2d/conv2d.2/relu/Relu_output_0, %conv3.1.conv2d.3.conv1.weight)
  %/conv3/conv3.1/conv2d/conv2d.3/conv2/Conv_output_0 = Conv[dilations = [1, 1], group = 24, kernel_shape = [3, 3], pads = [1, 1, 1, 1], strides = [1, 1]](%/conv3/conv3.1/conv2d/conv2d.3/conv1/Conv_output_0, %onnx::Conv_1201, %onnx::Conv_1202)
  %/conv3/conv3.1/conv2d/conv2d.3/relu/Relu_output_0 = Relu(%/conv3/conv3.1/conv2d/conv2d.3/conv2/Conv_output_0)
  %/conv3/conv3.1/gate/global_avgpool/GlobalAveragePool_output_0 = GlobalAveragePool(%/conv3/conv3.1/conv2a/relu/Relu_output_0)
  %/conv3/conv3.1/gate/fc1/Conv_output_0 = Conv[dilations = [1, 1], group = 1, kernel_shape = [1, 1], pads = [0, 0, 0, 0], strides = [1, 1]](%/conv3/conv3.1/gate/global_avgpool/GlobalAveragePool_output_0, %conv3.1.gate.fc1.weight, %conv3.1.gate.fc1.bias)
  %/conv3/conv3.1/gate/relu/Relu_output_0 = Relu(%/conv3/conv3.1/gate/fc1/Conv_output_0)
  %/conv3/conv3.1/gate/fc2/Conv_output_0 = Conv[dilations = [1, 1], group = 1, kernel_shape = [1, 1], pads = [0, 0, 0, 0], strides = [1, 1]](%/conv3/conv3.1/gate/relu/Relu_output_0, %conv3.1.gate.fc2.weight, %conv3.1.gate.fc2.bias)
  %/conv3/conv3.1/gate/gate_activation/Sigmoid_output_0 = Sigmoid(%/conv3/conv3.1/gate/fc2/Conv_output_0)
  %/conv3/conv3.1/gate/Mul_output_0 = Mul(%/conv3/conv3.1/conv2a/relu/Relu_output_0, %/conv3/conv3.1/gate/gate_activation/Sigmoid_output_0)
  %/conv3/conv3.1/gate/global_avgpool_1/GlobalAveragePool_output_0 = GlobalAveragePool(%/conv3/conv3.1/conv2b/conv2b.1/relu/Relu_output_0)
  %/conv3/conv3.1/gate/fc1_1/Conv_output_0 = Conv[dilations = [1, 1], group = 1, kernel_shape = [1, 1], pads = [0, 0, 0, 0], strides = [1, 1]](%/conv3/conv3.1/gate/global_avgpool_1/GlobalAveragePool_output_0, %conv3.1.gate.fc1.weight, %conv3.1.gate.fc1.bias)
  %/conv3/conv3.1/gate/relu_1/Relu_output_0 = Relu(%/conv3/conv3.1/gate/fc1_1/Conv_output_0)
  %/conv3/conv3.1/gate/fc2_1/Conv_output_0 = Conv[dilations = [1, 1], group = 1, kernel_shape = [1, 1], pads = [0, 0, 0, 0], strides = [1, 1]](%/conv3/conv3.1/gate/relu_1/Relu_output_0, %conv3.1.gate.fc2.weight, %conv3.1.gate.fc2.bias)
  %/conv3/conv3.1/gate/gate_activation_1/Sigmoid_output_0 = Sigmoid(%/conv3/conv3.1/gate/fc2_1/Conv_output_0)
  %/conv3/conv3.1/gate_1/Mul_output_0 = Mul(%/conv3/conv3.1/conv2b/conv2b.1/relu/Relu_output_0, %/conv3/conv3.1/gate/gate_activation_1/Sigmoid_output_0)
  %/conv3/conv3.1/Add_output_0 = Add(%/conv3/conv3.1/gate/Mul_output_0, %/conv3/conv3.1/gate_1/Mul_output_0)
  %/conv3/conv3.1/gate/global_avgpool_2/GlobalAveragePool_output_0 = GlobalAveragePool(%/conv3/conv3.1/conv2c/conv2c.2/relu/Relu_output_0)
  %/conv3/conv3.1/gate/fc1_2/Conv_output_0 = Conv[dilations = [1, 1], group = 1, kernel_shape = [1, 1], pads = [0, 0, 0, 0], strides = [1, 1]](%/conv3/conv3.1/gate/global_avgpool_2/GlobalAveragePool_output_0, %conv3.1.gate.fc1.weight, %conv3.1.gate.fc1.bias)
  %/conv3/conv3.1/gate/relu_2/Relu_output_0 = Relu(%/conv3/conv3.1/gate/fc1_2/Conv_output_0)
  %/conv3/conv3.1/gate/fc2_2/Conv_output_0 = Conv[dilations = [1, 1], group = 1, kernel_shape = [1, 1], pads = [0, 0, 0, 0], strides = [1, 1]](%/conv3/conv3.1/gate/relu_2/Relu_output_0, %conv3.1.gate.fc2.weight, %conv3.1.gate.fc2.bias)
  %/conv3/conv3.1/gate/gate_activation_2/Sigmoid_output_0 = Sigmoid(%/conv3/conv3.1/gate/fc2_2/Conv_output_0)
  %/conv3/conv3.1/gate_2/Mul_output_0 = Mul(%/conv3/conv3.1/conv2c/conv2c.2/relu/Relu_output_0, %/conv3/conv3.1/gate/gate_activation_2/Sigmoid_output_0)
  %/conv3/conv3.1/Add_1_output_0 = Add(%/conv3/conv3.1/Add_output_0, %/conv3/conv3.1/gate_2/Mul_output_0)
  %/conv3/conv3.1/gate/global_avgpool_3/GlobalAveragePool_output_0 = GlobalAveragePool(%/conv3/conv3.1/conv2d/conv2d.3/relu/Relu_output_0)
  %/conv3/conv3.1/gate/fc1_3/Conv_output_0 = Conv[dilations = [1, 1], group = 1, kernel_shape = [1, 1], pads = [0, 0, 0, 0], strides = [1, 1]](%/conv3/conv3.1/gate/global_avgpool_3/GlobalAveragePool_output_0, %conv3.1.gate.fc1.weight, %conv3.1.gate.fc1.bias)
  %/conv3/conv3.1/gate/relu_3/Relu_output_0 = Relu(%/conv3/conv3.1/gate/fc1_3/Conv_output_0)
  %/conv3/conv3.1/gate/fc2_3/Conv_output_0 = Conv[dilations = [1, 1], group = 1, kernel_shape = [1, 1], pads = [0, 0, 0, 0], strides = [1, 1]](%/conv3/conv3.1/gate/relu_3/Relu_output_0, %conv3.1.gate.fc2.weight, %conv3.1.gate.fc2.bias)
  %/conv3/conv3.1/gate/gate_activation_3/Sigmoid_output_0 = Sigmoid(%/conv3/conv3.1/gate/fc2_3/Conv_output_0)
  %/conv3/conv3.1/gate_3/Mul_output_0 = Mul(%/conv3/conv3.1/conv2d/conv2d.3/relu/Relu_output_0, %/conv3/conv3.1/gate/gate_activation_3/Sigmoid_output_0)
  %/conv3/conv3.1/Add_2_output_0 = Add(%/conv3/conv3.1/Add_1_output_0, %/conv3/conv3.1/gate_3/Mul_output_0)
  %/conv3/conv3.1/conv3/conv/Conv_output_0 = Conv[dilations = [1, 1], group = 1, kernel_shape = [1, 1], pads = [0, 0, 0, 0], strides = [1, 1]](%/conv3/conv3.1/Add_2_output_0, %onnx::Conv_1204, %onnx::Conv_1205)
  %/conv3/conv3.1/Add_3_output_0 = Add(%/conv3/conv3.1/conv3/conv/Conv_output_0, %/conv3/conv3.0/Relu_output_0)
  %/conv3/conv3.1/Relu_output_0 = Relu(%/conv3/conv3.1/Add_3_output_0)
  %/conv3/conv3.2/conv3.2.0/conv/Conv_output_0 = Conv[dilations = [1, 1], group = 1, kernel_shape = [1, 1], pads = [0, 0, 0, 0], strides = [1, 1]](%/conv3/conv3.1/Relu_output_0, %onnx::Conv_1207, %onnx::Conv_1208)
  %/conv3/conv3.2/conv3.2.0/relu/Relu_output_0 = Relu(%/conv3/conv3.2/conv3.2.0/conv/Conv_output_0)
  %/conv3/conv3.2/conv3.2.1/Constant_output_0 = Constant[value = <Tensor>]()
  %/conv3/conv3.2/conv3.2.1/Pad_output_0 = Pad[mode = 'constant'](%/conv3/conv3.2/conv3.2.0/relu/Relu_output_0, %/conv3/conv3.2/conv3.2.1/Constant_output_0)
  %/conv3/conv3.2/conv3.2.1/AveragePool_output_0 = AveragePool[kernel_shape = [2, 2], pads = [0, 0, 0, 0], strides = [2, 2]](%/conv3/conv3.2/conv3.2.1/Pad_output_0)
  %/conv4/conv4.0/conv1/conv/Conv_output_0 = Conv[dilations = [1, 1], group = 1, kernel_shape = [1, 1], pads = [0, 0, 0, 0], strides = [1, 1]](%/conv3/conv3.2/conv3.2.1/AveragePool_output_0, %onnx::Conv_1210, %onnx::Conv_1211)
  %/conv4/conv4.0/conv1/relu/Relu_output_0 = Relu(%/conv4/conv4.0/conv1/conv/Conv_output_0)
  %/conv4/conv4.0/conv2a/conv1/Conv_output_0 = Conv[dilations = [1, 1], group = 1, kernel_shape = [1, 1], pads = [0, 0, 0, 0], strides = [1, 1]](%/conv4/conv4.0/conv1/relu/Relu_output_0, %conv4.0.conv2a.conv1.weight)
  %/conv4/conv4.0/conv2a/conv2/Conv_output_0 = Conv[dilations = [1, 1], group = 32, kernel_shape = [3, 3], pads = [1, 1, 1, 1], strides = [1, 1]](%/conv4/conv4.0/conv2a/conv1/Conv_output_0, %onnx::Conv_1213, %onnx::Conv_1214)
  %/conv4/conv4.0/conv2a/relu/Relu_output_0 = Relu(%/conv4/conv4.0/conv2a/conv2/Conv_output_0)
  %/conv4/conv4.0/conv2b/conv2b.0/conv1/Conv_output_0 = Conv[dilations = [1, 1], group = 1, kernel_shape = [1, 1], pads = [0, 0, 0, 0], strides = [1, 1]](%/conv4/conv4.0/conv1/relu/Relu_output_0, %conv4.0.conv2b.0.conv1.weight)
  %/conv4/conv4.0/conv2b/conv2b.0/conv2/Conv_output_0 = Conv[dilations = [1, 1], group = 32, kernel_shape = [3, 3], pads = [1, 1, 1, 1], strides = [1, 1]](%/conv4/conv4.0/conv2b/conv2b.0/conv1/Conv_output_0, %onnx::Conv_1216, %onnx::Conv_1217)
  %/conv4/conv4.0/conv2b/conv2b.0/relu/Relu_output_0 = Relu(%/conv4/conv4.0/conv2b/conv2b.0/conv2/Conv_output_0)
  %/conv4/conv4.0/conv2b/conv2b.1/conv1/Conv_output_0 = Conv[dilations = [1, 1], group = 1, kernel_shape = [1, 1], pads = [0, 0, 0, 0], strides = [1, 1]](%/conv4/conv4.0/conv2b/conv2b.0/relu/Relu_output_0, %conv4.0.conv2b.1.conv1.weight)
  %/conv4/conv4.0/conv2b/conv2b.1/conv2/Conv_output_0 = Conv[dilations = [1, 1], group = 32, kernel_shape = [3, 3], pads = [1, 1, 1, 1], strides = [1, 1]](%/conv4/conv4.0/conv2b/conv2b.1/conv1/Conv_output_0, %onnx::Conv_1219, %onnx::Conv_1220)
  %/conv4/conv4.0/conv2b/conv2b.1/relu/Relu_output_0 = Relu(%/conv4/conv4.0/conv2b/conv2b.1/conv2/Conv_output_0)
  %/conv4/conv4.0/conv2c/conv2c.0/conv1/Conv_output_0 = Conv[dilations = [1, 1], group = 1, kernel_shape = [1, 1], pads = [0, 0, 0, 0], strides = [1, 1]](%/conv4/conv4.0/conv1/relu/Relu_output_0, %conv4.0.conv2c.0.conv1.weight)
  %/conv4/conv4.0/conv2c/conv2c.0/conv2/Conv_output_0 = Conv[dilations = [1, 1], group = 32, kernel_shape = [3, 3], pads = [1, 1, 1, 1], strides = [1, 1]](%/conv4/conv4.0/conv2c/conv2c.0/conv1/Conv_output_0, %onnx::Conv_1222, %onnx::Conv_1223)
  %/conv4/conv4.0/conv2c/conv2c.0/relu/Relu_output_0 = Relu(%/conv4/conv4.0/conv2c/conv2c.0/conv2/Conv_output_0)
  %/conv4/conv4.0/conv2c/conv2c.1/conv1/Conv_output_0 = Conv[dilations = [1, 1], group = 1, kernel_shape = [1, 1], pads = [0, 0, 0, 0], strides = [1, 1]](%/conv4/conv4.0/conv2c/conv2c.0/relu/Relu_output_0, %conv4.0.conv2c.1.conv1.weight)
  %/conv4/conv4.0/conv2c/conv2c.1/conv2/Conv_output_0 = Conv[dilations = [1, 1], group = 32, kernel_shape = [3, 3], pads = [1, 1, 1, 1], strides = [1, 1]](%/conv4/conv4.0/conv2c/conv2c.1/conv1/Conv_output_0, %onnx::Conv_1225, %onnx::Conv_1226)
  %/conv4/conv4.0/conv2c/conv2c.1/relu/Relu_output_0 = Relu(%/conv4/conv4.0/conv2c/conv2c.1/conv2/Conv_output_0)
  %/conv4/conv4.0/conv2c/conv2c.2/conv1/Conv_output_0 = Conv[dilations = [1, 1], group = 1, kernel_shape = [1, 1], pads = [0, 0, 0, 0], strides = [1, 1]](%/conv4/conv4.0/conv2c/conv2c.1/relu/Relu_output_0, %conv4.0.conv2c.2.conv1.weight)
  %/conv4/conv4.0/conv2c/conv2c.2/conv2/Conv_output_0 = Conv[dilations = [1, 1], group = 32, kernel_shape = [3, 3], pads = [1, 1, 1, 1], strides = [1, 1]](%/conv4/conv4.0/conv2c/conv2c.2/conv1/Conv_output_0, %onnx::Conv_1228, %onnx::Conv_1229)
  %/conv4/conv4.0/conv2c/conv2c.2/relu/Relu_output_0 = Relu(%/conv4/conv4.0/conv2c/conv2c.2/conv2/Conv_output_0)
  %/conv4/conv4.0/conv2d/conv2d.0/conv1/Conv_output_0 = Conv[dilations = [1, 1], group = 1, kernel_shape = [1, 1], pads = [0, 0, 0, 0], strides = [1, 1]](%/conv4/conv4.0/conv1/relu/Relu_output_0, %conv4.0.conv2d.0.conv1.weight)
  %/conv4/conv4.0/conv2d/conv2d.0/conv2/Conv_output_0 = Conv[dilations = [1, 1], group = 32, kernel_shape = [3, 3], pads = [1, 1, 1, 1], strides = [1, 1]](%/conv4/conv4.0/conv2d/conv2d.0/conv1/Conv_output_0, %onnx::Conv_1231, %onnx::Conv_1232)
  %/conv4/conv4.0/conv2d/conv2d.0/relu/Relu_output_0 = Relu(%/conv4/conv4.0/conv2d/conv2d.0/conv2/Conv_output_0)
  %/conv4/conv4.0/conv2d/conv2d.1/conv1/Conv_output_0 = Conv[dilations = [1, 1], group = 1, kernel_shape = [1, 1], pads = [0, 0, 0, 0], strides = [1, 1]](%/conv4/conv4.0/conv2d/conv2d.0/relu/Relu_output_0, %conv4.0.conv2d.1.conv1.weight)
  %/conv4/conv4.0/conv2d/conv2d.1/conv2/Conv_output_0 = Conv[dilations = [1, 1], group = 32, kernel_shape = [3, 3], pads = [1, 1, 1, 1], strides = [1, 1]](%/conv4/conv4.0/conv2d/conv2d.1/conv1/Conv_output_0, %onnx::Conv_1234, %onnx::Conv_1235)
  %/conv4/conv4.0/conv2d/conv2d.1/relu/Relu_output_0 = Relu(%/conv4/conv4.0/conv2d/conv2d.1/conv2/Conv_output_0)
  %/conv4/conv4.0/conv2d/conv2d.2/conv1/Conv_output_0 = Conv[dilations = [1, 1], group = 1, kernel_shape = [1, 1], pads = [0, 0, 0, 0], strides = [1, 1]](%/conv4/conv4.0/conv2d/conv2d.1/relu/Relu_output_0, %conv4.0.conv2d.2.conv1.weight)
  %/conv4/conv4.0/conv2d/conv2d.2/conv2/Conv_output_0 = Conv[dilations = [1, 1], group = 32, kernel_shape = [3, 3], pads = [1, 1, 1, 1], strides = [1, 1]](%/conv4/conv4.0/conv2d/conv2d.2/conv1/Conv_output_0, %onnx::Conv_1237, %onnx::Conv_1238)
  %/conv4/conv4.0/conv2d/conv2d.2/relu/Relu_output_0 = Relu(%/conv4/conv4.0/conv2d/conv2d.2/conv2/Conv_output_0)
  %/conv4/conv4.0/conv2d/conv2d.3/conv1/Conv_output_0 = Conv[dilations = [1, 1], group = 1, kernel_shape = [1, 1], pads = [0, 0, 0, 0], strides = [1, 1]](%/conv4/conv4.0/conv2d/conv2d.2/relu/Relu_output_0, %conv4.0.conv2d.3.conv1.weight)
  %/conv4/conv4.0/conv2d/conv2d.3/conv2/Conv_output_0 = Conv[dilations = [1, 1], group = 32, kernel_shape = [3, 3], pads = [1, 1, 1, 1], strides = [1, 1]](%/conv4/conv4.0/conv2d/conv2d.3/conv1/Conv_output_0, %onnx::Conv_1240, %onnx::Conv_1241)
  %/conv4/conv4.0/conv2d/conv2d.3/relu/Relu_output_0 = Relu(%/conv4/conv4.0/conv2d/conv2d.3/conv2/Conv_output_0)
  %/conv4/conv4.0/gate/global_avgpool/GlobalAveragePool_output_0 = GlobalAveragePool(%/conv4/conv4.0/conv2a/relu/Relu_output_0)
  %/conv4/conv4.0/gate/fc1/Conv_output_0 = Conv[dilations = [1, 1], group = 1, kernel_shape = [1, 1], pads = [0, 0, 0, 0], strides = [1, 1]](%/conv4/conv4.0/gate/global_avgpool/GlobalAveragePool_output_0, %conv4.0.gate.fc1.weight, %conv4.0.gate.fc1.bias)
  %/conv4/conv4.0/gate/relu/Relu_output_0 = Relu(%/conv4/conv4.0/gate/fc1/Conv_output_0)
  %/conv4/conv4.0/gate/fc2/Conv_output_0 = Conv[dilations = [1, 1], group = 1, kernel_shape = [1, 1], pads = [0, 0, 0, 0], strides = [1, 1]](%/conv4/conv4.0/gate/relu/Relu_output_0, %conv4.0.gate.fc2.weight, %conv4.0.gate.fc2.bias)
  %/conv4/conv4.0/gate/gate_activation/Sigmoid_output_0 = Sigmoid(%/conv4/conv4.0/gate/fc2/Conv_output_0)
  %/conv4/conv4.0/gate/Mul_output_0 = Mul(%/conv4/conv4.0/conv2a/relu/Relu_output_0, %/conv4/conv4.0/gate/gate_activation/Sigmoid_output_0)
  %/conv4/conv4.0/gate/global_avgpool_1/GlobalAveragePool_output_0 = GlobalAveragePool(%/conv4/conv4.0/conv2b/conv2b.1/relu/Relu_output_0)
  %/conv4/conv4.0/gate/fc1_1/Conv_output_0 = Conv[dilations = [1, 1], group = 1, kernel_shape = [1, 1], pads = [0, 0, 0, 0], strides = [1, 1]](%/conv4/conv4.0/gate/global_avgpool_1/GlobalAveragePool_output_0, %conv4.0.gate.fc1.weight, %conv4.0.gate.fc1.bias)
  %/conv4/conv4.0/gate/relu_1/Relu_output_0 = Relu(%/conv4/conv4.0/gate/fc1_1/Conv_output_0)
  %/conv4/conv4.0/gate/fc2_1/Conv_output_0 = Conv[dilations = [1, 1], group = 1, kernel_shape = [1, 1], pads = [0, 0, 0, 0], strides = [1, 1]](%/conv4/conv4.0/gate/relu_1/Relu_output_0, %conv4.0.gate.fc2.weight, %conv4.0.gate.fc2.bias)
  %/conv4/conv4.0/gate/gate_activation_1/Sigmoid_output_0 = Sigmoid(%/conv4/conv4.0/gate/fc2_1/Conv_output_0)
  %/conv4/conv4.0/gate_1/Mul_output_0 = Mul(%/conv4/conv4.0/conv2b/conv2b.1/relu/Relu_output_0, %/conv4/conv4.0/gate/gate_activation_1/Sigmoid_output_0)
  %/conv4/conv4.0/Add_output_0 = Add(%/conv4/conv4.0/gate/Mul_output_0, %/conv4/conv4.0/gate_1/Mul_output_0)
  %/conv4/conv4.0/gate/global_avgpool_2/GlobalAveragePool_output_0 = GlobalAveragePool(%/conv4/conv4.0/conv2c/conv2c.2/relu/Relu_output_0)
  %/conv4/conv4.0/gate/fc1_2/Conv_output_0 = Conv[dilations = [1, 1], group = 1, kernel_shape = [1, 1], pads = [0, 0, 0, 0], strides = [1, 1]](%/conv4/conv4.0/gate/global_avgpool_2/GlobalAveragePool_output_0, %conv4.0.gate.fc1.weight, %conv4.0.gate.fc1.bias)
  %/conv4/conv4.0/gate/relu_2/Relu_output_0 = Relu(%/conv4/conv4.0/gate/fc1_2/Conv_output_0)
  %/conv4/conv4.0/gate/fc2_2/Conv_output_0 = Conv[dilations = [1, 1], group = 1, kernel_shape = [1, 1], pads = [0, 0, 0, 0], strides = [1, 1]](%/conv4/conv4.0/gate/relu_2/Relu_output_0, %conv4.0.gate.fc2.weight, %conv4.0.gate.fc2.bias)
  %/conv4/conv4.0/gate/gate_activation_2/Sigmoid_output_0 = Sigmoid(%/conv4/conv4.0/gate/fc2_2/Conv_output_0)
  %/conv4/conv4.0/gate_2/Mul_output_0 = Mul(%/conv4/conv4.0/conv2c/conv2c.2/relu/Relu_output_0, %/conv4/conv4.0/gate/gate_activation_2/Sigmoid_output_0)
  %/conv4/conv4.0/Add_1_output_0 = Add(%/conv4/conv4.0/Add_output_0, %/conv4/conv4.0/gate_2/Mul_output_0)
  %/conv4/conv4.0/gate/global_avgpool_3/GlobalAveragePool_output_0 = GlobalAveragePool(%/conv4/conv4.0/conv2d/conv2d.3/relu/Relu_output_0)
  %/conv4/conv4.0/gate/fc1_3/Conv_output_0 = Conv[dilations = [1, 1], group = 1, kernel_shape = [1, 1], pads = [0, 0, 0, 0], strides = [1, 1]](%/conv4/conv4.0/gate/global_avgpool_3/GlobalAveragePool_output_0, %conv4.0.gate.fc1.weight, %conv4.0.gate.fc1.bias)
  %/conv4/conv4.0/gate/relu_3/Relu_output_0 = Relu(%/conv4/conv4.0/gate/fc1_3/Conv_output_0)
  %/conv4/conv4.0/gate/fc2_3/Conv_output_0 = Conv[dilations = [1, 1], group = 1, kernel_shape = [1, 1], pads = [0, 0, 0, 0], strides = [1, 1]](%/conv4/conv4.0/gate/relu_3/Relu_output_0, %conv4.0.gate.fc2.weight, %conv4.0.gate.fc2.bias)
  %/conv4/conv4.0/gate/gate_activation_3/Sigmoid_output_0 = Sigmoid(%/conv4/conv4.0/gate/fc2_3/Conv_output_0)
  %/conv4/conv4.0/gate_3/Mul_output_0 = Mul(%/conv4/conv4.0/conv2d/conv2d.3/relu/Relu_output_0, %/conv4/conv4.0/gate/gate_activation_3/Sigmoid_output_0)
  %/conv4/conv4.0/Add_2_output_0 = Add(%/conv4/conv4.0/Add_1_output_0, %/conv4/conv4.0/gate_3/Mul_output_0)
  %/conv4/conv4.0/conv3/conv/Conv_output_0 = Conv[dilations = [1, 1], group = 1, kernel_shape = [1, 1], pads = [0, 0, 0, 0], strides = [1, 1]](%/conv4/conv4.0/Add_2_output_0, %onnx::Conv_1243, %onnx::Conv_1244)
  %/conv4/conv4.0/downsample/conv/Conv_output_0 = Conv[dilations = [1, 1], group = 1, kernel_shape = [1, 1], pads = [0, 0, 0, 0], strides = [1, 1]](%/conv3/conv3.2/conv3.2.1/AveragePool_output_0, %onnx::Conv_1246, %onnx::Conv_1247)
  %/conv4/conv4.0/Add_3_output_0 = Add(%/conv4/conv4.0/conv3/conv/Conv_output_0, %/conv4/conv4.0/downsample/conv/Conv_output_0)
  %/conv4/conv4.0/Relu_output_0 = Relu(%/conv4/conv4.0/Add_3_output_0)
  %/conv4/conv4.1/conv1/conv/Conv_output_0 = Conv[dilations = [1, 1], group = 1, kernel_shape = [1, 1], pads = [0, 0, 0, 0], strides = [1, 1]](%/conv4/conv4.0/Relu_output_0, %onnx::Conv_1249, %onnx::Conv_1250)
  %/conv4/conv4.1/conv1/relu/Relu_output_0 = Relu(%/conv4/conv4.1/conv1/conv/Conv_output_0)
  %/conv4/conv4.1/conv2a/conv1/Conv_output_0 = Conv[dilations = [1, 1], group = 1, kernel_shape = [1, 1], pads = [0, 0, 0, 0], strides = [1, 1]](%/conv4/conv4.1/conv1/relu/Relu_output_0, %conv4.1.conv2a.conv1.weight)
  %/conv4/conv4.1/conv2a/conv2/Conv_output_0 = Conv[dilations = [1, 1], group = 32, kernel_shape = [3, 3], pads = [1, 1, 1, 1], strides = [1, 1]](%/conv4/conv4.1/conv2a/conv1/Conv_output_0, %onnx::Conv_1252, %onnx::Conv_1253)
  %/conv4/conv4.1/conv2a/relu/Relu_output_0 = Relu(%/conv4/conv4.1/conv2a/conv2/Conv_output_0)
  %/conv4/conv4.1/conv2b/conv2b.0/conv1/Conv_output_0 = Conv[dilations = [1, 1], group = 1, kernel_shape = [1, 1], pads = [0, 0, 0, 0], strides = [1, 1]](%/conv4/conv4.1/conv1/relu/Relu_output_0, %conv4.1.conv2b.0.conv1.weight)
  %/conv4/conv4.1/conv2b/conv2b.0/conv2/Conv_output_0 = Conv[dilations = [1, 1], group = 32, kernel_shape = [3, 3], pads = [1, 1, 1, 1], strides = [1, 1]](%/conv4/conv4.1/conv2b/conv2b.0/conv1/Conv_output_0, %onnx::Conv_1255, %onnx::Conv_1256)
  %/conv4/conv4.1/conv2b/conv2b.0/relu/Relu_output_0 = Relu(%/conv4/conv4.1/conv2b/conv2b.0/conv2/Conv_output_0)
  %/conv4/conv4.1/conv2b/conv2b.1/conv1/Conv_output_0 = Conv[dilations = [1, 1], group = 1, kernel_shape = [1, 1], pads = [0, 0, 0, 0], strides = [1, 1]](%/conv4/conv4.1/conv2b/conv2b.0/relu/Relu_output_0, %conv4.1.conv2b.1.conv1.weight)
  %/conv4/conv4.1/conv2b/conv2b.1/conv2/Conv_output_0 = Conv[dilations = [1, 1], group = 32, kernel_shape = [3, 3], pads = [1, 1, 1, 1], strides = [1, 1]](%/conv4/conv4.1/conv2b/conv2b.1/conv1/Conv_output_0, %onnx::Conv_1258, %onnx::Conv_1259)
  %/conv4/conv4.1/conv2b/conv2b.1/relu/Relu_output_0 = Relu(%/conv4/conv4.1/conv2b/conv2b.1/conv2/Conv_output_0)
  %/conv4/conv4.1/conv2c/conv2c.0/conv1/Conv_output_0 = Conv[dilations = [1, 1], group = 1, kernel_shape = [1, 1], pads = [0, 0, 0, 0], strides = [1, 1]](%/conv4/conv4.1/conv1/relu/Relu_output_0, %conv4.1.conv2c.0.conv1.weight)
  %/conv4/conv4.1/conv2c/conv2c.0/conv2/Conv_output_0 = Conv[dilations = [1, 1], group = 32, kernel_shape = [3, 3], pads = [1, 1, 1, 1], strides = [1, 1]](%/conv4/conv4.1/conv2c/conv2c.0/conv1/Conv_output_0, %onnx::Conv_1261, %onnx::Conv_1262)
  %/conv4/conv4.1/conv2c/conv2c.0/relu/Relu_output_0 = Relu(%/conv4/conv4.1/conv2c/conv2c.0/conv2/Conv_output_0)
  %/conv4/conv4.1/conv2c/conv2c.1/conv1/Conv_output_0 = Conv[dilations = [1, 1], group = 1, kernel_shape = [1, 1], pads = [0, 0, 0, 0], strides = [1, 1]](%/conv4/conv4.1/conv2c/conv2c.0/relu/Relu_output_0, %conv4.1.conv2c.1.conv1.weight)
  %/conv4/conv4.1/conv2c/conv2c.1/conv2/Conv_output_0 = Conv[dilations = [1, 1], group = 32, kernel_shape = [3, 3], pads = [1, 1, 1, 1], strides = [1, 1]](%/conv4/conv4.1/conv2c/conv2c.1/conv1/Conv_output_0, %onnx::Conv_1264, %onnx::Conv_1265)
  %/conv4/conv4.1/conv2c/conv2c.1/relu/Relu_output_0 = Relu(%/conv4/conv4.1/conv2c/conv2c.1/conv2/Conv_output_0)
  %/conv4/conv4.1/conv2c/conv2c.2/conv1/Conv_output_0 = Conv[dilations = [1, 1], group = 1, kernel_shape = [1, 1], pads = [0, 0, 0, 0], strides = [1, 1]](%/conv4/conv4.1/conv2c/conv2c.1/relu/Relu_output_0, %conv4.1.conv2c.2.conv1.weight)
  %/conv4/conv4.1/conv2c/conv2c.2/conv2/Conv_output_0 = Conv[dilations = [1, 1], group = 32, kernel_shape = [3, 3], pads = [1, 1, 1, 1], strides = [1, 1]](%/conv4/conv4.1/conv2c/conv2c.2/conv1/Conv_output_0, %onnx::Conv_1267, %onnx::Conv_1268)
  %/conv4/conv4.1/conv2c/conv2c.2/relu/Relu_output_0 = Relu(%/conv4/conv4.1/conv2c/conv2c.2/conv2/Conv_output_0)
  %/conv4/conv4.1/conv2d/conv2d.0/conv1/Conv_output_0 = Conv[dilations = [1, 1], group = 1, kernel_shape = [1, 1], pads = [0, 0, 0, 0], strides = [1, 1]](%/conv4/conv4.1/conv1/relu/Relu_output_0, %conv4.1.conv2d.0.conv1.weight)
  %/conv4/conv4.1/conv2d/conv2d.0/conv2/Conv_output_0 = Conv[dilations = [1, 1], group = 32, kernel_shape = [3, 3], pads = [1, 1, 1, 1], strides = [1, 1]](%/conv4/conv4.1/conv2d/conv2d.0/conv1/Conv_output_0, %onnx::Conv_1270, %onnx::Conv_1271)
  %/conv4/conv4.1/conv2d/conv2d.0/relu/Relu_output_0 = Relu(%/conv4/conv4.1/conv2d/conv2d.0/conv2/Conv_output_0)
  %/conv4/conv4.1/conv2d/conv2d.1/conv1/Conv_output_0 = Conv[dilations = [1, 1], group = 1, kernel_shape = [1, 1], pads = [0, 0, 0, 0], strides = [1, 1]](%/conv4/conv4.1/conv2d/conv2d.0/relu/Relu_output_0, %conv4.1.conv2d.1.conv1.weight)
  %/conv4/conv4.1/conv2d/conv2d.1/conv2/Conv_output_0 = Conv[dilations = [1, 1], group = 32, kernel_shape = [3, 3], pads = [1, 1, 1, 1], strides = [1, 1]](%/conv4/conv4.1/conv2d/conv2d.1/conv1/Conv_output_0, %onnx::Conv_1273, %onnx::Conv_1274)
  %/conv4/conv4.1/conv2d/conv2d.1/relu/Relu_output_0 = Relu(%/conv4/conv4.1/conv2d/conv2d.1/conv2/Conv_output_0)
  %/conv4/conv4.1/conv2d/conv2d.2/conv1/Conv_output_0 = Conv[dilations = [1, 1], group = 1, kernel_shape = [1, 1], pads = [0, 0, 0, 0], strides = [1, 1]](%/conv4/conv4.1/conv2d/conv2d.1/relu/Relu_output_0, %conv4.1.conv2d.2.conv1.weight)
  %/conv4/conv4.1/conv2d/conv2d.2/conv2/Conv_output_0 = Conv[dilations = [1, 1], group = 32, kernel_shape = [3, 3], pads = [1, 1, 1, 1], strides = [1, 1]](%/conv4/conv4.1/conv2d/conv2d.2/conv1/Conv_output_0, %onnx::Conv_1276, %onnx::Conv_1277)
  %/conv4/conv4.1/conv2d/conv2d.2/relu/Relu_output_0 = Relu(%/conv4/conv4.1/conv2d/conv2d.2/conv2/Conv_output_0)
  %/conv4/conv4.1/conv2d/conv2d.3/conv1/Conv_output_0 = Conv[dilations = [1, 1], group = 1, kernel_shape = [1, 1], pads = [0, 0, 0, 0], strides = [1, 1]](%/conv4/conv4.1/conv2d/conv2d.2/relu/Relu_output_0, %conv4.1.conv2d.3.conv1.weight)
  %/conv4/conv4.1/conv2d/conv2d.3/conv2/Conv_output_0 = Conv[dilations = [1, 1], group = 32, kernel_shape = [3, 3], pads = [1, 1, 1, 1], strides = [1, 1]](%/conv4/conv4.1/conv2d/conv2d.3/conv1/Conv_output_0, %onnx::Conv_1279, %onnx::Conv_1280)
  %/conv4/conv4.1/conv2d/conv2d.3/relu/Relu_output_0 = Relu(%/conv4/conv4.1/conv2d/conv2d.3/conv2/Conv_output_0)
  %/conv4/conv4.1/gate/global_avgpool/GlobalAveragePool_output_0 = GlobalAveragePool(%/conv4/conv4.1/conv2a/relu/Relu_output_0)
  %/conv4/conv4.1/gate/fc1/Conv_output_0 = Conv[dilations = [1, 1], group = 1, kernel_shape = [1, 1], pads = [0, 0, 0, 0], strides = [1, 1]](%/conv4/conv4.1/gate/global_avgpool/GlobalAveragePool_output_0, %conv4.1.gate.fc1.weight, %conv4.1.gate.fc1.bias)
  %/conv4/conv4.1/gate/relu/Relu_output_0 = Relu(%/conv4/conv4.1/gate/fc1/Conv_output_0)
  %/conv4/conv4.1/gate/fc2/Conv_output_0 = Conv[dilations = [1, 1], group = 1, kernel_shape = [1, 1], pads = [0, 0, 0, 0], strides = [1, 1]](%/conv4/conv4.1/gate/relu/Relu_output_0, %conv4.1.gate.fc2.weight, %conv4.1.gate.fc2.bias)
  %/conv4/conv4.1/gate/gate_activation/Sigmoid_output_0 = Sigmoid(%/conv4/conv4.1/gate/fc2/Conv_output_0)
  %/conv4/conv4.1/gate/Mul_output_0 = Mul(%/conv4/conv4.1/conv2a/relu/Relu_output_0, %/conv4/conv4.1/gate/gate_activation/Sigmoid_output_0)
  %/conv4/conv4.1/gate/global_avgpool_1/GlobalAveragePool_output_0 = GlobalAveragePool(%/conv4/conv4.1/conv2b/conv2b.1/relu/Relu_output_0)
  %/conv4/conv4.1/gate/fc1_1/Conv_output_0 = Conv[dilations = [1, 1], group = 1, kernel_shape = [1, 1], pads = [0, 0, 0, 0], strides = [1, 1]](%/conv4/conv4.1/gate/global_avgpool_1/GlobalAveragePool_output_0, %conv4.1.gate.fc1.weight, %conv4.1.gate.fc1.bias)
  %/conv4/conv4.1/gate/relu_1/Relu_output_0 = Relu(%/conv4/conv4.1/gate/fc1_1/Conv_output_0)
  %/conv4/conv4.1/gate/fc2_1/Conv_output_0 = Conv[dilations = [1, 1], group = 1, kernel_shape = [1, 1], pads = [0, 0, 0, 0], strides = [1, 1]](%/conv4/conv4.1/gate/relu_1/Relu_output_0, %conv4.1.gate.fc2.weight, %conv4.1.gate.fc2.bias)
  %/conv4/conv4.1/gate/gate_activation_1/Sigmoid_output_0 = Sigmoid(%/conv4/conv4.1/gate/fc2_1/Conv_output_0)
  %/conv4/conv4.1/gate_1/Mul_output_0 = Mul(%/conv4/conv4.1/conv2b/conv2b.1/relu/Relu_output_0, %/conv4/conv4.1/gate/gate_activation_1/Sigmoid_output_0)
  %/conv4/conv4.1/Add_output_0 = Add(%/conv4/conv4.1/gate/Mul_output_0, %/conv4/conv4.1/gate_1/Mul_output_0)
  %/conv4/conv4.1/gate/global_avgpool_2/GlobalAveragePool_output_0 = GlobalAveragePool(%/conv4/conv4.1/conv2c/conv2c.2/relu/Relu_output_0)
  %/conv4/conv4.1/gate/fc1_2/Conv_output_0 = Conv[dilations = [1, 1], group = 1, kernel_shape = [1, 1], pads = [0, 0, 0, 0], strides = [1, 1]](%/conv4/conv4.1/gate/global_avgpool_2/GlobalAveragePool_output_0, %conv4.1.gate.fc1.weight, %conv4.1.gate.fc1.bias)
  %/conv4/conv4.1/gate/relu_2/Relu_output_0 = Relu(%/conv4/conv4.1/gate/fc1_2/Conv_output_0)
  %/conv4/conv4.1/gate/fc2_2/Conv_output_0 = Conv[dilations = [1, 1], group = 1, kernel_shape = [1, 1], pads = [0, 0, 0, 0], strides = [1, 1]](%/conv4/conv4.1/gate/relu_2/Relu_output_0, %conv4.1.gate.fc2.weight, %conv4.1.gate.fc2.bias)
  %/conv4/conv4.1/gate/gate_activation_2/Sigmoid_output_0 = Sigmoid(%/conv4/conv4.1/gate/fc2_2/Conv_output_0)
  %/conv4/conv4.1/gate_2/Mul_output_0 = Mul(%/conv4/conv4.1/conv2c/conv2c.2/relu/Relu_output_0, %/conv4/conv4.1/gate/gate_activation_2/Sigmoid_output_0)
  %/conv4/conv4.1/Add_1_output_0 = Add(%/conv4/conv4.1/Add_output_0, %/conv4/conv4.1/gate_2/Mul_output_0)
  %/conv4/conv4.1/gate/global_avgpool_3/GlobalAveragePool_output_0 = GlobalAveragePool(%/conv4/conv4.1/conv2d/conv2d.3/relu/Relu_output_0)
  %/conv4/conv4.1/gate/fc1_3/Conv_output_0 = Conv[dilations = [1, 1], group = 1, kernel_shape = [1, 1], pads = [0, 0, 0, 0], strides = [1, 1]](%/conv4/conv4.1/gate/global_avgpool_3/GlobalAveragePool_output_0, %conv4.1.gate.fc1.weight, %conv4.1.gate.fc1.bias)
  %/conv4/conv4.1/gate/relu_3/Relu_output_0 = Relu(%/conv4/conv4.1/gate/fc1_3/Conv_output_0)
  %/conv4/conv4.1/gate/fc2_3/Conv_output_0 = Conv[dilations = [1, 1], group = 1, kernel_shape = [1, 1], pads = [0, 0, 0, 0], strides = [1, 1]](%/conv4/conv4.1/gate/relu_3/Relu_output_0, %conv4.1.gate.fc2.weight, %conv4.1.gate.fc2.bias)
  %/conv4/conv4.1/gate/gate_activation_3/Sigmoid_output_0 = Sigmoid(%/conv4/conv4.1/gate/fc2_3/Conv_output_0)
  %/conv4/conv4.1/gate_3/Mul_output_0 = Mul(%/conv4/conv4.1/conv2d/conv2d.3/relu/Relu_output_0, %/conv4/conv4.1/gate/gate_activation_3/Sigmoid_output_0)
  %/conv4/conv4.1/Add_2_output_0 = Add(%/conv4/conv4.1/Add_1_output_0, %/conv4/conv4.1/gate_3/Mul_output_0)
  %/conv4/conv4.1/conv3/conv/Conv_output_0 = Conv[dilations = [1, 1], group = 1, kernel_shape = [1, 1], pads = [0, 0, 0, 0], strides = [1, 1]](%/conv4/conv4.1/Add_2_output_0, %onnx::Conv_1282, %onnx::Conv_1283)
  %/conv4/conv4.1/Add_3_output_0 = Add(%/conv4/conv4.1/conv3/conv/Conv_output_0, %/conv4/conv4.0/Relu_output_0)
  %/conv4/conv4.1/Relu_output_0 = Relu(%/conv4/conv4.1/Add_3_output_0)
  %/conv5/conv/Conv_output_0 = Conv[dilations = [1, 1], group = 1, kernel_shape = [1, 1], pads = [0, 0, 0, 0], strides = [1, 1]](%/conv4/conv4.1/Relu_output_0, %onnx::Conv_1285, %onnx::Conv_1286)
  %/conv5/relu/Relu_output_0 = Relu(%/conv5/conv/Conv_output_0)
  %/global_avgpool/GlobalAveragePool_output_0 = GlobalAveragePool(%/conv5/relu/Relu_output_0)
  %/Constant_output_0 = Constant[value = <Tensor>]()
  %/Reshape_output_0 = Reshape[allowzero = 0](%/global_avgpool/GlobalAveragePool_output_0, %/Constant_output_0)
  %/fc/fc.0/Gemm_output_0 = Gemm[alpha = 1, beta = 1, transB = 1](%/Reshape_output_0, %fc.0.weight, %fc.0.bias)
  %/fc/fc.1/BatchNormalization_output_0 = BatchNormalization[epsilon = 9.99999974737875e-06, momentum = 0.899999976158142, training_mode = 0](%/fc/fc.0/Gemm_output_0, %fc.1.weight, %fc.1.bias, %fc.1.running_mean, %fc.1.running_var)
  %output = Relu(%/fc/fc.1/BatchNormalization_output_0)
  return %output
}